resources/pytorch_models/autoencoder_distances_volume_129x9x9.pt (torch, 457793 bytes, 12 tensors)

hidden_layers.0.weight f4 [300, 81]
00000000: 2674 063e 4a01 483d bfb1 11be f622 0fbd
00000010: 7c54 efbd 298f fbbd a7f8 113d 3c9e 98bd
00000020: d9b0 5a3d 391e 1d3d 8a06 41bd d73c 2b3d
00000030: 45f5 afbc 8642 94bd 840b 4f3d cf1d c8bd
00000040: caa4 c73d 0f8e bebd 9f3c f5bd 9791 afbd
00000050: 994a 79be dce2 70bd aad4 e8bc 7319 fbbc
00000060: 88d2 b43d 3190 743c 08d4 0cba 6799 173d
00000070: fd2f 3ebe d9f7 4a3d 2574 47bd 6271 9fbd
00000080: 7de3 30be 5623 cbbd ca62 b7bd b219 f63c
00000090: f884 27bd 6d23 10be 08e5 b4bd 7bbe c83d
000000a0: c85d 843c 9c54 6dbd ac18 aabd cf55 99bd
000000b0: 2067 dc3d d811 54bd 891e 4ebd 039a b0bc
000000c0: 080b edbb 977d ba3d 22a5 07be e20f 5dbd
000000d0: 3ef6 b23d 0ca7 98bd afff 8f3d 71e1 efbd
000000e0: b29c 30be 0579 e7bd f1b9 03be d269 8b3d
000000f0: 946b 9abd dd02 813d 5357 9e3d 69f9 08be
00000100: 5d74 b23b 566e 99bd 8edd 7f3d c1c2 503d
00000110: 63e4 693d c42f a73d 84b5 0e3e 6b41 353d
00000120: d70c a63d 420b a23c dcd5 8fbd 2076 b93b
00000130: 107d 0c3d d901 a0bc 2063 bb3d 2de9 c83d
00000140: 3965 87bd 7af2 1fbc 2298 da3d c1af 923d
00000150: 8b77 eb3c 1894 723e f951 ba3d 9d53 7abd
00000160: 6e99 85bd 1539 07bc 0e46 04bc 1ed6 ab3d
00000170: d100 393d b426 de3c c3ca 843d 734b 12bd
00000180: caa5 013e 3e75 1c3d 86a0 053d b752 053e
00000190: 501c 80bd 515e 323e 96ce 083e 1049 a43d
000001a0: c34d 093e 1a2e b6bd c55b a23d 0ec5 c6bd
000001b0: ae7e a13d 3173 393e c50f 85bd bcff 343e
000001c0: d2a3 e83d c8f2 1b3e cda2 f4bd 62f5 0c3b
000001d0: 7d9b 9fbd 3553 0abd d360 0d3e 6894 333e
000001e0: 8d38 c0bd b677 223e 3a47 983d 086b 0e3e
000001f0: c065 863d fb07 72bd ae80 773d 2bdb a23d
00000200: bce3 273e 920a f73d eb75 8e3c 0eca f63d
00000210: 00a4 87be e0d8 9bbd c150 b3bd 1e29 063c
00000220: 96f2 bc3d 0ad5 8bbc 4abb b53c 0f9c 1e3e
00000230: b956 40bd ca53 83bd 588d 94bd e6dc 25be
00000240: ca0b eb3d dcfc b1bc e87a 8c3d 97af 0f3c
00000250: 0051 42be 0285 ab3d e22e ad3d 35e1 173e
00000260: ddf7 143e 481c 2d3e 18ff 923d 2f2d 99bd
00000270: 78d8 203e e94e 01bd 7957 e3bc bf14 653d
00000280: 9250 393d 799c 81bd 41a3 5cbe b050 8fbb
00000290: 3fc0 5dba 0821 5abb 62ea 2f3d 8e70 ca3d
000002a0: c55b 213e c0c9 ebbd fe1b f63d d561 91bd
000002b0: 1fa4 e1bd b092 efbd 94cc 9fbd 9a9b 49be
000002c0: 0050 6ebc 3040 0fbe 9773 e7bd 9c1d f1bd
000002d0: 15df 84bd 5592 bebb 2549 b4bd 9530 c1bc
000002e0: 9d8e 58bc 5e79 20bd 8f5f a63c ed6b 723c
000002f0: 51d7 be3c c5e3 48be db66 b8bd f9ec 91bc
00000300: d7b4 ecbd 80d0 31bd 8cdb debb 5fe7 d4bd
00000310: bd1a 05be 0e28 8e3d c2aa dbbd 8ba3 8fbd
00000320: 466c f0bd 6e0e 2e3d 9538 b63d a24c 683d
00000330: 74cf a6bd ee72 cb3c 5889 bb3d c47f 13be
00000340: 51a1 e53d 70af 3d3c 52eb 3abd 8ef9 67bb
00000350: 43aa 813d 0c9e 33bd f105 db3c 3a41 c13d
00000360: 79d3 a1bc d1dd e43c f066 503d 23fd 8bbc
00000370: 08b0 e0bd 40c6 e8bc 90e3 a43d 7411 dd3d
00000380: 8f04 973c ab50 b23d acc1 bd3d 06cf e93c
00000390: b2e7 023e 7c75 88bd 361d ccbc ae00 60bd
000003a0: a630 c53d 8c2c 78bd 6383 0fbe 4d48 afbd
000003b0: 5803 35bd 8710 803d 026d a03c 25b8 44bd
000003c0: fe12 0a3e c7de a6bc 9a70 a3bd 2c72 38be
000003d0: e9eb 06bd 558b a73d 4d12 69bd 964e ae3d
000003e0: 4d1b 80bc dba1 86be f5e9 44be a9de 1bbc
000003f0: 5508 ae3d 6efc 8a3d 74a5 00bc c927 c3bc
0.13130245 0.048829354 -0.14227961 -0.03494545 -0.11686036 -0.12283165 0.035637524 -0.07452056
0.05339131 0.0383589 -0.047125377 0.04180607 -0.021479258 -0.07239251 0.05054809 -0.097713105
0.09748228 -0.09304439 -0.11974453 -0.08572691 -0.24344863 -0.0588101 -0.028421719 -0.030651784
0.08829218 0.014926956 -0.0005372171 0.03701153 -0.18572994 0.049552772 -0.04869475 -0.07785298
-0.1727428 -0.09918849 -0.089543894 0.03004155 -0.040898293 -0.14076014 -0.08832747 0.09801956
0.016158 -0.057942018 -0.08305487 -0.0748707 0.10761857 -0.05177483 -0.05032209 -0.021557814
-0.007233981 0.091059856 -0.13246587 -0.053970225 0.08738373 -0.07453737 0.0703119 -0.117129214
-0.17247275 -0.113023795 -0.128639 0.06807293 -0.0754005 0.06299374 0.077314995 -0.13376392
0.0054460005 -0.07491748 0.06246715 0.05096698 0.057102572 0.081634074 0.1393643 0.04425184
0.08107918 0.019780759 -0.07023212 0.0056598336 0.034298956 -0.019532131 0.09149766 0.098101
-0.066111036 -0.009762401 0.10673548 0.07162429 0.028743526 0.23689306 0.09097666 -0.061114896
-0.06523405 -0.0082533555 -0.008073343 0.08390449 0.045166794 0.027118064 0.06483986 -0.035716485
0.126609 0.03819775 0.03262379 0.13019834 -0.062554 0.17418791 0.13360056 0.08021748
0.1340857 -0.08895512 0.0792766 -0.09705554 0.0788549 0.18110348 -0.064971484 0.1767568
0.11359371 0.15229332 -0.11945114 0.0021508564 -0.07793329 -0.03377076 0.13806467 0.17537081
-0.09385786 0.15865979 0.074354604 0.13908017 0.06562376 -0.059089642 0.060425453 0.07951959
0.16395468 0.12062563 0.017390212 0.120502576 -0.2649231 -0.07609725 -0.08755637 0.008188514
0.09225957 -0.017069358 0.022184033 0.15489219 -0.046957705 -0.06412466 -0.07253522 -0.16197547
0.11476858 -0.021727018 0.0685938 0.008769891 -0.18976212 0.083749786 0.08456208 0.14832003
0.14547677 0.1690532 0.071775615 -0.07479321 0.15707576 -0.031569395 -0.027751671 0.05592799
0.045242853 -0.06328673 -0.21546651 -0.0043736324 -0.0008459128 -0.0033283848 0.042948134 0.09884749
0.15757664 -0.1151309 0.12017058 -0.07098738 -0.11017632 -0.116979 -0.07802692 -0.19688264
-0.014545441 -0.1398933 -0.11301344 -0.11773226 -0.06487862 -0.005815784 -0.08803014 -0.023582736
-0.013217595 -0.039178245 0.020309238 0.014796239 0.02329603 -0.19618137 -0.09003993 -0.017813193
-0.1155793 -0.04341173 -0.0068010744 -0.10395693 -0.12998481 0.069412336 -0.10725929 -0.07013615
-0.117394015 0.04249423 0.08897511 0.056713708 -0.08145037 0.024835076 0.091570556 -0.14404207
0.11212409 0.011577472 -0.045634575 -0.003539655 0.06331303 -0.043851897 0.026736232 0.09436269
-0.019754158 0.027937802 0.05087942 -0.017088478 -0.10971075 -0.028414845 0.080512166 0.107943445
0.01843479 0.087067924 0.092654556 0.0285411 0.12783697 -0.06663033 -0.024916273 -0.05468815
0.096284196 -0.06058936 -0.14014964 -0.08558712 -0.044192642 0.06253152 0.019583229 -0.048027176
0.13483807 -0.0203699 -0.079804614 -0.18012303 -0.032939825 0.08180872 -0.05690222 0.08511083
-0.015638018 -0.2629536 -0.19229873 -0.009513536 0.08497683 0.067864284 -0.007851947 -0.023822682

hidden_layers.0.bias f4 [300]
00000000: cc46 fa3c cbc1 35bd f67d af3d b17a 05be
00000010: 372a 243e 7732 01be 6ad3 163e 6446 9bbd
00000020: 4943 523e 8408 493e e166 ab3d bb4e 923d
00000030: c3af edbc 892a 223e c757 90bc d630 763d
00000040: 0e56 adbc 275a 823d 4860 2d3e 4b02 edbd
00000050: bb88 33bd 5c66 033e f4de 0e3e 0f59 143e
00000060: 260c 573d 7636 803e 06bd 1f3e ddf2 803d
00000070: fd41 683e 3ce3 723d 72c2 3d3e eff2 f23d
00000080: cf16 d23e d99d 223e c804 343e 7a43 a23d
00000090: f29f e63b 9b05 61be 1705 963e f2e2 213d
000000a0: 6a1d 313e 1142 443e d072 92bc cc95 333e
000000b0: 9e1c 1abe 6cf6 c53b d259 be3c 9ce4 a83d
000000c0: b7af 173d e5c5 01bd bb33 01be 3c57 66be
000000d0: 9f8b 6ebe d3f3 2ebe 8704 393e 3698 25be
000000e0: 9884 953d 1558 bc3d 2580 423e 3696 1cbe
000000f0: 9b7b dfbd 955b 8a3e 8cdc f13d 24d9 37be
00000100: ef99 313d aa47 e3bc a4da 853e e471 273e
00000110: b767 303d 4c53 26bd 2864 6bbd 216a 5b3e
00000120: c04a 043e 3d7a 2ebe 525a 383d 8b24 353e
00000130: c905 6e3e f028 d13d 5269 7ebd d054 6c3e
00000140: 3aec 9a3d 94fd 9b3e 2743 f7bd c305 4e3e
00000150: 115f 543e 7a88 323e 4f05 043e 5194 13bd
00000160: f629 be3d d605 dcbb 021d 113e 6d64 4cbd
00000170: 3673 a23d 94c0 ab3d 7706 0a3e fd49 91bd
00000180: a705 5fbd 2504 b73d 4948 813e 7101 783d
00000190: aec4 6bbd b30e 593e 992a 963e 356b edbd
000001a0: 6e10 4b3e 67fd 85be db83 1c3e ec6a 8e3e
000001b0: 1c66 8e3e 4652 eb3d 171c 023e 90e5 283e
000001c0: 445c cabd 8742 b33e b4ad de3d 120e 2f3e
000001d0: 82b1 803e 2897 e93d c00d 4c3e 446a cebc
000001e0: c1b8 a03e 837c 8e3e 955f f8bc 5727 69be
000001f0: f94e 1ebe 0586 703d c627 523e 376e a0bc
00000200: 8b27 b9bd ed09 2ebe 7c54 1a3e 8d13 7e3e
00000210: 33ca 753c 418d d6bd c287 633e 0b59 ac3a
00000220: b396 b4be bc6e 0a3d e533 7c3e c204 d53d
00000230: 46a1 a93e 1d6f 26be 2cce 733e e1b8 e73c
00000240: eb44 ffbc 488d eabd 3798 0abe fbe4 a03d
00000250: 360c 19be 1872 273e 0576 933d 6730 a33e
00000260: df83 9d3d a26e e1bd 40c8 013e 02bf be3e
00000270: b6a1 5d3d 5f94 0abd db8e 913e 76b3 e6bd
00000280: 3579 9d3d 4d22 8cbd 42da e53c 13a5 f0bb
00000290: 8cbf f13d 8632 cb3d 5a24 38be ae8c e7bc
000002a0: b5ad 1d3e e31b 62be 4e8f 83be 8862 8dbe
000002b0: 759f 6dbe f159 b5bd c983 f13d 110d 2cbe
000002c0: 39b9 87bd a47a 58be ea62 163e ddaf 7cbe
000002d0: fa58 a4be 73c6 9dbd 062f d5bc 6c7a 6abd
000002e0: a395 00bd cef8 7c3d 4a6f 493e 1f43 85bd
000002f0: 2a1a 52bd f7bd c2bd 03f7 213e 90d7 dd3d
00000300: d653 463e a15c 0a3e 14bb f1bc fc07 483e
00000310: fbdb 7f3d a2c3 173d 674f 19bd 29c3 91bd
00000320: ebe2 803e 0699 e13e e921 fc3d 4a7c f83b
00000330: addc 373e 1afb 5abd bde0 583c 5371 3f3d
00000340: 8be6 1fbe ce32 09be f675 763d c6df c93d
00000350: 0fea 133d 6548 cf3d 1df8 7fbe eff7 273e
00000360: 82f4 53bd 0991 37be 1253 773e 8f86 1a3e
00000370: 701c f03e f4d5 48bc ef09 8c3d 72b7 813e
00000380: 974d 4e3e ca45 20bd bb5e 03be 2829 24be
00000390: 40cf a23d e616 75be 94ae 45be 1606 413d
000003a0: 24c0 3b3d f6b7 8a3c 74d7 153e fdfc b13d
000003b0: 3467 423e 8ed0 4ebd a756 103e dbfa d9bc
000003c0: 4b79 2f3c f6a4 22be 4513 bd3d 6d29 03bc
000003d0: 5d9c 63be c755 91bd cb0c 983c d2c7 ff3d
000003e0: 029b aa3c 020a 763e 5fb5 973d cd6d b3be
000003f0: 2b34 173e 5d8c 7abe 759d 04be db0d 8dbd
0.030551337 -0.04437427 0.08568947 -0.13035084 0.16031729 -0.12616907 0.14729086 -0.07581785
0.2053348 0.19632155 0.08369232 0.07143923 -0.029014474 0.15836538 -0.01761998 0.060105167
-0.021159198 0.063648514 0.1693126 -0.11572703 -0.04383157 0.12832016 0.13952237 0.14487098
0.05250182 0.2504155 0.1559945 0.062963225 0.22681423 0.05929874 0.18531206 0.11862742
0.41033027 0.15880527 0.17579949 0.079230264 0.00703811 -0.21974795 0.29300758 0.039523073
0.17296377 0.19165827 -0.017877012 0.17537612 -0.15049979 0.0060413387 0.023236189 0.08246729
0.03703281 -0.031682868 -0.1261739 -0.22494215 -0.23295449 -0.17085199 0.18068133 -0.16171345
0.07300681 0.09196488 0.18994196 -0.15291676 -0.10912248 0.27022997 0.11809644 -0.17953926
0.043359693 -0.027744133 0.26143372 0.1635204 0.04306766 -0.04060678 -0.057468563 0.21427204
0.1291914 -0.17038818 0.04500801 0.17689721 0.23244394 0.10212886 -0.06211216 0.23079228
0.07564588 0.30466902 -0.12073355 0.20119385 0.2073939 0.17434874 0.1289265 -0.036030117
0.09285347 -0.006714563 0.14171222 -0.04990046 0.07932131 0.08386341 0.13479029 -0.0709419
-0.05444875 0.089363374 0.25250462 0.06054825 -0.057560615 0.21197014 0.29329374 -0.11592714
0.19830486 -0.26169893 0.15284674 0.2781595 0.27812278 0.11490302 0.12706028 0.16493821
-0.098808795 0.35011694 0.10872975 0.17095211 0.25135428 0.11405784 0.1992712 -0.025197156
0.31390956 0.2782937 -0.030319015 -0.22768913 -0.15459813 0.05872156 0.20522985 -0.019583805
-0.09040745 -0.16995974 0.1507129 0.24812146 0.015001821 -0.10476161 0.22219756 0.0013149095
-0.35271224 0.03379701 0.24629171 0.10401298 0.33130854 -0.16253324 0.23809117 0.0282864
-0.031160792 -0.114527285 -0.13534628 0.078561746 -0.14946064 0.16352117 0.07200245 0.31872866
0.07691168 -0.1100743 0.12674046 0.37255102 0.054109298 -0.033832904 0.28429303 -0.11264698
0.07689134 -0.0684248 0.028058175 -0.007343897 0.11804113 0.09921746 -0.17982617 -0.028265323
0.15398295 -0.2208095 -0.2569527 -0.27614236 -0.2320536 -0.088550456 0.11792714 -0.1680186
-0.06627125 -0.21140534 0.1468617 -0.24676462 -0.32099134 -0.07703867 -0.0260234 -0.057245657
-0.031392705 0.061760716 0.1967136 -0.06506943 -0.051294483 -0.09508889 0.15816884 0.10832131
0.19367918 0.13511898 -0.029508151 0.19534296 0.06246565 0.037051804 -0.03742924 -0.07117302
0.25173125 0.4406206 0.12311155 0.007583176 0.17955275 -0.053462125 0.0132371755 0.046738934
-0.15615289 -0.13398287 0.06017109 0.098571345 0.036111888 0.1012123 -0.24996991 0.16403173
-0.051746853 -0.1792642 0.24152783 0.15090393 0.46896696 -0.012258042 0.06837832 0.2533527
0.20146786 -0.039129056 -0.12829106 -0.16031325 0.07949686 -0.23934516 -0.19304878 0.047124945
0.045837536 0.016933423 0.1463297 0.08690832 0.18984681 -0.050491862 0.14095555 -0.026608875
0.010710071 -0.1588324 0.09232191 -0.008005482 -0.22227617 -0.07096439 0.018560788 0.124892846
0.020825867 0.24027255 0.07407641 -0.3504471 0.14765994 -0.24467607 -0.1295069 -0.06887408

hidden_layers.2.weight f4 [100, 300]
00000000: 8ed8 fdbb 154b 103e a12f 71bc 5d84 6d3d
00000010: 763c f8bb 163c 89ba af5f 55bc 18b1 cb3d
00000020: 05e3 2c3d 6b69 263b 33cc b53d a0b0 a1bc
00000030: 0c92 cbbb 9d57 823d 13f8 693c c72f babc
00000040: 29c1 1d3e bb03 783c 2fc4 53bd 42de 6cbd
00000050: f6ea d23c 68ff fd3a 3a65 2bbe 860e c9bb
00000060: e706 adbd 6af3 bbbd da11 ec3d 461e 2e3e
00000070: e6f2 2bbd 7efe 133d d255 10be 791a a0bb
00000080: 97cd 95bd 240d 5ebd ecb3 74bb 83a3 0bbd
00000090: 1507 6dbd 55cc a5bc 758b 58bd b6c9 883c
000000a0: cb65 25bb 513f 863c 1366 983d 51ef d7bc
000000b0: 7ec6 7bbc 6968 e13d e5b5 5c3d c6fd f33c
000000c0: 0aa7 3b3d 6a2c 49bd 2cd1 11ba c0ce b2bc
000000d0: 8fb7 61bd 14de 213d dfdd 87ba 7371 263d
000000e0: a6b1 163d 4f0e 843d b160 a1bd c9a5 38be
000000f0: 334a 8e3d c09c 9cbd bc4e f33c d54e 903d
00000100: 6b2c b8bd 6361 103d 5a3a 033c e4ca e23c
00000110: 930f 2d3d 8b40 21be 4a63 ad3c 339a 73bd
00000120: 7085 afbd b4b5 4f3d 41f4 0f3e 677b 453c
00000130: 56c4 60be 9c8f ed3c 215f a13d 11a3 18bc
00000140: 166e d33d bdef c93c dd5e a73d ae64 39bd
00000150: b2b8 313e 0730 6e3c ed89 f0bc 1ac0 8339
00000160: 66e0 6a3d e63d 3dbd 2ddd ca3c 2fba e43c
00000170: 3eb6 85bd 0944 a6bd e4cf ad3c ec3e b43c
00000180: c24b 5c3d 71dd fe3b 16e9 1f3d 318e 943d
00000190: 1909 753c 9fcd ef3c ae03 8dbd a127 b23b
000001a0: 5fcf 9bbc aed6 b63d 6a7e 3d3d 5c70 bbbc
000001b0: e3e4 483e da08 f1bb 7c42 7d3c 7894 9fbd
000001c0: f31e 953c 2973 9ebd cbbf 36bd e8bf b3bc
000001d0: 9fd9 01bd 3de8 84bd 5de0 0bbd 66e6 a43d
000001e0: 9e6d 70bc 60f6 25bc abc4 3dbd 7f55 423c
000001f0: 427c 693d 0a19 41bd c85e fdbb 48f6 f83c
00000200: c844 153e fe5f 8ebd ad8d 913d 8965 a23d
00000210: 5485 203d 8ac4 2ebd c557 c8bd 13db 913b
00000220: d4f0 a53d 6eab f83d aeef 8f3d 27ed 9ebd
00000230: c446 eebc 4854 1a3d df9b 913d e2b3 bd3d
00000240: 263a 0abe 4787 3b3d 986f 4ebd 072a 8bbc
00000250: 9d6a 343d de68 f53b db08 f13c 4c72 2cbd
00000260: 3d45 94bd b682 f3bd 5329 bbbd a4ed 25bd
00000270: bfb4 513d d489 d73c 6786 1f3d b75e 913d
00000280: 2bf5 ec3d ceec 843c e061 03bc ffac 9f3c
00000290: f9e2 a53d 9fa8 463d a158 db3d fd27 bfbd
000002a0: d5ae fc3c 1a8a ae3c 5315 ccbd 5bd1 dfbb
000002b0: e45c dc3d 896a 4b3d b19f 9c3b 3024 13bd
000002c0: 613b c73c e34a 6fbd 63f8 80bc a511 7cbd
000002d0: 449f 1abd b6be 8dbd e128 82bc d20e 9b3d
000002e0: 1d57 1dbe 7150 72bd 3a1e acbd 9e1b 05be
000002f0: 8085 f5bc e269 5ebd a747 d23d 51e1 d73d
00000300: f254 c43b 5240 ae3d 003c ecbc 5b35 36bd
00000310: 2875 dcb9 ebb9 cbbd 14ee 403b 04db 753d
00000320: 3c78 c93c 66ea b03c 9fce 8f3d 2d54 e5bd
00000330: db6d ba3d 257b e83b 9f89 bd3c 757d 1f3e
00000340: 7b24 bebc 57f2 043e 4e52 1abb fd35 773c
00000350: acbd b8bc 9151 923c b1b8 6a3d 6cff 093e
00000360: 65ed 533e bd75 c93d b47e 0abe eef6 5c3d
00000370: 0634 a83d 5703 073d 42d4 9d3c 7caf 623d
00000380: 8a8e e53c 2439 423e 0419 fb3c cca5 ba3c
00000390: a0e2 213d 21ec 0c3b 4e22 3e3c 0990 0e3c
000003a0: 3810 f539 9e79 36bd 4fe4 c6bd aba1 0f3d
000003b0: 28bf 8fbc 1432 d8bc 5b2b 4d3d d7d0 07bc
000003c0: b195 8e3d 7ef1 943c 6d18 42be 8405 0abc
000003d0: d265 c73d 1a29 af3d a9cb 35bd 47d0 b43c
000003e0: fe17 38be 771d 79bc 5d39 fc3b 8ff8 92bd
000003f0: a4ce 853d ca72 93bd 83d0 78bd 63ff 0f3e
-0.0077467626 0.14091142 -0.014720828 0.05798756 -0.007575567 -0.0010470178 -0.013023301 0.09945887
0.04220869 0.0025392424 0.088768385 -0.019737542 -0.0062124785 0.06364367 0.014280337 -0.02272786
0.15405716 0.015137608 -0.051700767 -0.05782915 0.025746804 0.0019378485 -0.16737834 -0.0061357645
-0.08448582 -0.09177287 0.115268424 0.17003736 -0.041979693 0.036131375 -0.14095238 -0.0048859683
-0.07314604 -0.05421175 -0.0037338687 -0.034091484 -0.057868082 -0.020239035 -0.05286737 0.016697746
-0.0025237675 0.016387613 0.07441344 -0.026359232 -0.015367148 0.11006243 0.053884406 0.029784095
0.045813598 -0.049114622 -0.000556248 -0.021827102 -0.055106696 0.03951843 -0.0010365805 0.040635537
0.036790513 0.06448042 -0.078797705 -0.18031992 0.06947746 -0.07647085 0.02970063 0.07046286
-0.08992847 0.035249125 0.008009518 0.027684636 0.04225118 -0.15747277 0.021165509 -0.059473228
-0.08570373 0.050710395 0.14058019 0.012053347 -0.21949896 0.028999142 0.078794725 -0.009316222
0.103237316 0.024650449 0.081723906 -0.04526203 0.17355612 0.014537818 -0.029362643 0.00025129394
0.05734291 -0.04620161 0.024763668 0.02792081 -0.065289006 -0.081184454 0.021217294 0.02200266
0.053783186 0.0077778627 0.039040647 0.07253683 0.014955782 0.029272852 -0.068854675 0.005436853
-0.01901978 0.08927666 0.046263136 -0.022880726 0.19618563 -0.0073557915 0.015457746 -0.0779199
0.018203234 -0.07736809 -0.0446165 -0.021942094 -0.03170168 -0.064896084 -0.034149516 0.080517575
-0.014674572 -0.010129541 -0.046330135 0.011861204 0.057003267 -0.04714302 -0.007732246 0.030390874
0.14577019 -0.06951903 0.07107101 0.079295225 0.03918965 -0.042667903 -0.09782366 0.0044511645
0.08102575 0.121420726 0.07028137 -0.07760077 -0.029086478 0.037678033 0.07109808 0.092628255
-0.13498744 0.045783307 -0.050399393 -0.016987814 0.044046987 0.007489308 0.029423168 -0.04210119
-0.07239769 -0.118901655 -0.09138741 -0.040509835 0.051197764 0.026310839 0.038946535 0.070981435
0.115701996 0.016226199 -0.008018941 0.01949167 0.08099932 0.048500653 0.10710264 -0.09333799
0.030845085 0.021306086 -0.09965005 -0.006830377 0.10759905 0.049662147 0.004779779 -0.035923183
0.024320306 -0.058421027 -0.01574344 -0.061540265 -0.037749544 -0.06921141 -0.015888633 0.07571186
-0.15365262 -0.059158746 -0.08404203 -0.12998816 -0.029970884 -0.054300196 0.10267573 0.105410226
0.0059915716 0.08508362 -0.028837204 -0.044484477 -0.00042048958 -0.099475704 0.002943878 0.060023323
0.024593465 0.021596145 0.07021832 -0.11197696 0.091029845 0.007094758 0.023136912 0.15575202
-0.023210755 0.1298307 -0.0023547593 0.015088555 -0.02255138 0.01786116 0.05730504 0.13476342
0.20696028 0.0983691 -0.13524896 0.053946428 0.08213048 0.03296217 0.019266251 0.055343136
0.02802207 0.1896711 0.030651577 0.022784136 0.039522767 0.0021503048 0.011604859 0.008701333
0.00046742125 -0.044549577 -0.09711515 0.035066288 -0.017547205 -0.026391067 0.050090175 -0.008289537
0.06962145 0.018181559 -0.1895463 -0.008424167 0.097362176 0.085527614 -0.04438368 0.02207197
-0.17977902 -0.015204779 0.007697268 -0.07176315 0.06533554 -0.07199629 -0.060745727 0.14062266

hidden_layers.2.bias f4 [100]
00000000: bd94 d73c 5658 043e 5501 57bd f150 933d
00000010: d3ce 523e e699 b2bd 3dd9 7a3d a691 95bc
00000020: ed12 eb3d 3ea4 223d ffb7 8b3e 8180 ad3c
00000030: f852 6a3c 794d e53d 92a9 b33d 5a20 2d3e
00000040: 7379 d3bd b16b e3bd 6bdd 0b3e ae26 73bd
00000050: 2efd 50bd 0b72 dfbd c6dd e93c 3e32 f33d
00000060: 7b90 813c 7386 553e fc93 b1bd 04c3 b03a
00000070: 67af 033e 195b a73d 574a e63c 315e 013e
00000080: ea3a 39bd f1cb dd3d ba2e a43d 26b7 053e
00000090: b156 4c3e 0583 743c 5ab6 153d 034e 20bc
000000a0: 4877 3b3e c5fd 883e c3c2 b23d eae0 1f3e
000000b0: 813b 273d 7622 d3bd 1a2b 25bd ff51 213e
000000c0: 6fb2 653e f69a 963d bcf3 533e 1638 283d
000000d0: 2982 10bc 5364 153c 476e a9bd c261 5c3e
000000e0: a423 bd3d 3c76 363e f0dc 163e 3aa1 863e
000000f0: 7624 67bd 965b 46bc 9b29 f73d 1414 383e
00000100: 334e a83d 06d0 503d a25e c03d 28e1 583d
00000110: 1f0d 15bc 65b9 88bd 484c 573e 77dd 463e
00000120: 2284 9f3d bc3b 9c3e 4435 f83d c794 87bc
00000130: 57da 753e 05f0 733e 2d9d a63d 5060 f23d
00000140: 53b4 043e 986c 803d f6e1 0c3e 4689 073e
00000150: 1e77 a3bd e473 7dbd 1114 a63d e89e 713d
00000160: e871 a5bd 31d7 d73d 118e 2a3e f6b8 4b3c
00000170: b3fd 833d ebfc d93c 8291 703d 4d38 b63e
00000180: 6762 4f3e 1aa5 7c3e 2c9a 663c 1802 18be
0.026316041 0.12924322 -0.052491505 0.07193173 0.2058671 -0.0872076 0.06124233 -0.018257927
0.11478219 0.039707415 0.27288815 0.02117944 0.014302008 0.11196417 0.08772577 0.16906872
-0.10325899 -0.11104525 0.13658683 -0.05936306 -0.0510227 -0.10910424 0.028548133 0.11874817
0.015815964 0.2085207 -0.08670804 0.0013485854 0.1285988 0.081716724 0.02811162 0.12633587
-0.0452222 0.10829914 0.08016725 0.13058147 0.19954945 0.014923816 0.036550857 -0.009784224
0.18307221 0.2675611 0.08728554 0.15613142 0.04082823 -0.10309307 -0.040324308 0.15753935
0.22431348 0.07353775 0.20698446 0.041069113 -0.008820095 0.009118157 -0.08272987 0.21521667
0.092353135 0.1781854 0.14732718 0.2629488 -0.056431256 -0.012106797 0.120684825 0.17976409
0.0821804 0.050979637 0.0939305 0.0529491 -0.009097367 -0.06675986 0.21025193 0.1942042
0.07788874 0.30514324 0.121195346 -0.016550435 0.24009071 0.23822029 0.08135448 0.118347764
0.12959413 0.062707126 0.13758072 0.1323596 -0.07981704 -0.0618781 0.08109296 0.058989435
-0.080783665 0.105390914 0.16655757 0.012434235 0.06444874 0.026609858 0.058732517 0.3558983
0.20252381 0.24672356 0.014074843 -0.14844549

hidden_layers.4.weight f4 [20, 100]
00000000: a995 8abd 23ef 8fbd 0599 923d 68e9 b5bd
00000010: b563 b8bc 8e05 ffbd 5a11 3abe 357e ae3d
00000020: b5b4 0cbe b311 103e 41d4 643d dc2c 87bd
00000030: 7131 a5bd 1bb0 7dbe ca32 06be d1ab 42bd
00000040: 745c 953c b72b 063e 071f 653d 5091 03be
00000050: 060b 863d 348f 063d c61c 9e3d 8127 c7bd
00000060: e589 a7bd 480e 15be 0a6a d33d fdaa 513d
00000070: 6790 58bd 3aea 58bd eea0 093e 1151 ec3d
00000080: 25e3 26bd 62a6 73bd f86b bdbd 3289 603c
00000090: eea4 c5bd ce8a ee3d 3f7f 5fbd 945c 303d
000000a0: da86 c73c 50e7 1dbc e35c 583e 960a bcbd
000000b0: 14b1 263d a8bf fe3d 2830 323e 5088 ae3e
000000c0: 6af4 fe3d c62b 253d 3744 b73a d1ff 4f3d
000000d0: 0a9f dbbb b6f4 553e e785 a73d 8c96 4f3d
000000e0: 732d 8e3d 2790 6d3c 35cd d3bc ac4e 913d
000000f0: cfb2 91bd cbbc 933e a4ad 15be 6f17 f7bd
00000100: 8f1b 0cbe 6fef d6bb 3fa7 9ebc 3383 61be
00000110: a0b3 1f3e 9573 0dbc 7b50 b0bd fcfb 7a3d
00000120: 878c d0bc 228b 1d3e 6324 a33d b57a eb3d
00000130: 9b52 12be 4478 093e b779 eebb 6ef3 01be
00000140: b183 9fbb c2c1 e4bd c7fd 1c3e c12e 05be
00000150: 2780 f3ba 00e4 92bd 4140 043e 45c1 8dbd
00000160: a367 96bd 31dc 083d 41f6 0fbc f1c9 43be
00000170: 303b a73d 67cf e83d 8217 98bb e6ca 233d
00000180: a5ef d5bd 718c 0a3d 5200 15bc 2421 c7bd
00000190: da3c 8dbd a091 373c 4bfa a63c 0661 f5bd
000001a0: 71cb b8bc 00ca a0bd 8e3c 2f3e 80d5 76bd
000001b0: 52a5 2b3e 0a59 e73b c0b2 cd3d 5e90 643b
000001c0: 9bd5 af3d 2a80 97bd c3d4 5dbe 7726 0d3d
000001d0: 8d02 32be e1e1 b7bd f758 5ebb 9d03 ccbd
000001e0: 05ec 19be b5a2 c63d e4b6 17bd 3d75 743d
000001f0: cfdf 27be 0ac8 593d bad6 b23d 7b4b 30bd
00000200: 80b7 d5bd 6562 473c e2c7 5b3d d7dd 073e
00000210: 4b41 5b3d c2cf 16be b5c0 92be bae2 163e
00000220: 80c0 80bd 83e5 993d 1534 0fbc 6711 913b
00000230: 4879 c5bc 72d6 003f 6726 20be 42b3 a63c
00000240: a9b1 dcbc ac7c a0bc 3969 8abc bd84 343e
00000250: 5c3f 153e f3f8 fbbc 40df 5d3e 7dfc 5bbe
00000260: 2b12 fabe c9f2 27be f9e0 583d 9b7a 8dbd
00000270: 49d8 bebd d894 c239 ca6b 81bc 3941 243e
00000280: 610c 503c 2d06 08be 7fab 87be 84c1 20bb
00000290: 03ae 66be bf4a d83d f341 e93d c191 b83e
000002a0: 4de2 463d 3d5e 86bd 0976 afbd 7e92 91bd
000002b0: cd06 4dbd 82bd fd3c a0f6 173e ee14 c33d
000002c0: 819c 843d ca48 07be c6e4 c5bd cca4 82bd
000002d0: c611 773c d096 0a3e 4fe8 a03d c390 ccbd
000002e0: b17e 28bd 5bb9 30bd de00 6d3d 0d73 f9bd
000002f0: 7846 3cbb fe68 433d 9392 5a3d e9b6 54be
00000300: 4913 693c 1fa9 903d 4cbf 51bd bb5c 113e
00000310: 6e4b bb3d 87e9 15bc bc8c 9a3b 2f58 ad3d
00000320: 1040 f23d e51d 6f3c 2fcc 0a3d 8a37 e73c
00000330: 2fb6 db3b d035 6bbe 6fe8 3a3e 46b1 243d
00000340: 4248 d63d 5c45 5ebd 73e4 39be 6c89 b3bd
00000350: 8976 013e afb6 38bc 1c42 c53d 0560 88bd
00000360: a80d 433d cc21 b9bb 92bb ac3d 85a0 80bd
00000370: 54f6 143c 48a2 f5bc 63cd 00bd 029e 063e
00000380: 84ab ffbd 1610 2ebe 3b5d 80bb baff c33d
00000390: 1859 963d dc5d ab3d e8ea e0bd 50fa 82bd
000003a0: 768e 013e da27 12be 5c0b a2bd eb78 c93d
000003b0: 0368 21bd 7484 04be cbe4 773e 3105 b03d
000003c0: da8f e8bd 37ea 943c 7a11 07be 4a06 d6bd
000003d0: ab45 39bd 32bf 603d 6698 1f3e 30e0 2ebd
000003e0: abf6 f13d 2e64 b9bc e662 8bbb 54cf 22bc
000003f0: 18df 693d ba07 a7be ce96 2fbb 9912 9f3c
-0.06766827 -0.070280336 0.071580924 -0.08882409 -0.022508482 -0.12452231 -0.18170682 0.08520166
-0.1374081 0.14069252 0.055866484 -0.06600353 -0.08066071 -0.2477421 -0.13105312 -0.04752714
0.018232562 0.13102613 0.055937793 -0.12848401 0.06545071 0.032851413 0.07720332 -0.09724332
-0.08180598 -0.14556229 0.1032296 0.051188458 -0.052872088 -0.05295775 0.13440296 0.115389
-0.040743966 -0.059484847 -0.09249109 0.013704585 -0.096505985 0.11647569 -0.05456471 0.04305704
0.024356294 -0.009637669 0.21129183 -0.091817066 0.04069622 0.12438899 0.17401183 0.34088373
0.12448962 0.04032495 0.0013982122 0.050781075 -0.0067023085 0.20894131 0.08179837 0.050680682
0.069422625 0.014499701 -0.025854686 0.070950836 -0.07114183 0.28854975 -0.1461702 -0.120650165
-0.13682388 -0.0065593044 -0.019366859 -0.22022705 0.15595865 -0.008633514 -0.086091004 0.061275467
-0.025457634 0.15385106 0.079659246 0.11498014 -0.14289324 0.13424784 -0.007277693 -0.12690517
-0.0048679938 -0.11169769 0.15331183 -0.13006116 -0.0018577621 -0.07172394 0.12915136 -0.06921629
-0.07343986 0.033413116 -0.008786739 -0.19120003 0.08165586 0.11367684 -0.004641474 0.03998842
-0.10446099 0.03382534 -0.009094315 -0.09723118 -0.06896372 0.011204153 0.02038302 -0.119813964
-0.022557946 -0.078510284 0.17112944 -0.060262203 0.16762283 0.007060175 0.100438595 0.0034876089
0.08585664 -0.07397492 -0.21663193 0.03446051 -0.17383786 -0.0897863 -0.003392754 -0.09961627
-0.1503144 0.09699003 -0.037039652 0.05968212 -0.1639397 0.053169288 0.08732362 -0.043040734
-0.104353905 0.012169455 0.05365742 0.13268219 0.053529065 -0.14727691 -0.2866265 0.14734927
-0.062867165 0.07514479 -0.008740445 0.0044271233 -0.024105683 0.5032722 -0.1563965 0.020349149
-0.026940184 -0.019590698 -0.016895877 0.1762876 0.14574951 -0.030758357 0.21667194 -0.21483035
-0.48841986 -0.16401209 0.052948926 -0.06908151 -0.09318597 0.0003711346 -0.015798468 0.16040505
0.012698264 -0.13283606 -0.2649803 -0.0024529407 -0.22527318 0.10561132 0.11389532 0.360487
0.04855566 -0.06560943 -0.08567435 -0.07108019 -0.050055314 0.030974153 0.14840174 0.095254764
0.06475163 -0.1321136 -0.09662776 -0.06379089 0.015079921 0.13534093 0.07856809 -0.099885486
-0.041136447 -0.04314552 0.057862155 -0.12180147 -0.0028728526 0.04770755 0.05336244 -0.207729
0.014225789 0.07063507 -0.051207826 0.1419553 0.091452464 -0.009149916 0.004716484 0.08464085
0.11828625 0.01459453 0.03388613 0.028224725 0.0067050676 -0.22969747 0.18252729 0.040208124
0.10463001 -0.054265365 -0.18153553 -0.087664455 0.12642874 -0.011274024 0.0963175 -0.06658939
0.047620445 -0.005649781 0.08434214 -0.06280617 0.009091932 -0.029984608 -0.031445872 0.13146213
-0.12483886 -0.16998324 -0.003917364 0.0957026 0.07341212 0.08367512 -0.10982305 -0.063953996
0.12652001 -0.14273015 -0.07912323 0.098375164 -0.039405834 -0.12941152 0.24208371 0.0859474
-0.113555625 0.018178089 -0.1319026 -0.10450418 -0.045232456 0.054869838 0.15585479 -0.04269427
0.11814626 -0.022630777 -0.004253733 -0.009937126 0.057097524 -0.32623082 -0.0026792767 0.019418048

hidden_layers.4.bias f4 [20]
00000000: 4b6a 83bc 070c 9e3d 1704 353b 9290 183e
00000010: cd18 0d3d b1ad 513e 56cb d23b 1146 e23d
00000020: 34c3 3f3d 3853 f2bc 1312 2f3e 31b3 673e
00000030: d581 513d 5668 363e 9a24 3f3e 6c2c 1fbd
00000040: 4181 dc3d b05f f43d 829b 1c3c e2fb 693d
-0.016041895 0.07717138 0.0027620846 0.14898899 0.03444748 0.20476414 0.006432931 0.1104852
0.04681702 -0.029580697 0.17096739 0.2262695 0.051149208 0.17813239 0.18666306 -0.038860723
0.10766841 0.119323134 0.00955856 0.05712498

hidden_layers.7.weight f4 [100, 20]
00000000: b82b dabe 88fb 473d 6f95 37bd b6d7 663d
00000010: 8930 e4bb 97b5 a23d 3c37 27be 1cc4 1d3d
00000020: a836 4b3e 944e cfbc ca79 cabc e37d efbd
00000030: 6c77 a73e 9bcd e13c c7f8 a3be 1d4c 8f3d
00000040: 7a64 0bbe 9698 8a3e 88dd c93d 73ff 5fbe
00000050: b339 12be 1184 643d d44e 9a3c 6853 88bd
00000060: 6ff5 8c3d 31a2 183e dfc9 1cbe 8b07 a1bd
00000070: 209d d9bd 3aa2 f1be 623a 11be 3414 c0be
00000080: d0fe 993e 3b74 7f3e 026e 213d 155b cdbd
00000090: 0bdb cf3d 92f9 0fbe 1838 92bd 9ada b03c
000000a0: a3f5 0cbe 1b40 cebc dbde 803d 705b dcbd
000000b0: fc50 64bd dce6 e03d 58f7 16be f0b6 9dbe
000000c0: 4a1f 163e ab71 b03d 59fd 24be ab5b 4a3e
000000d0: 6df0 1dbd 4db9 0d3d 9edf b73d e886 433e
000000e0: 15a0 bdbe 0583 7b3e 6143 8bbd 768c ef3b
000000f0: 6f3a 59be 1f49 183d cb96 003e c032 133e
00000100: cc05 2cbe 966d bdbd 0173 7fbe cc70 473e
00000110: f9cd 5a3d 9bb9 623d 8a6a 67bd 4830 0a3e
00000120: 1aee 5f3d 246e 8e3d 1b43 51bd 5f12 b73d
00000130: 031b 803c 729d 89bd b7d1 9dbe 9a03 213d
00000140: c4cd bc3e 9335 78be c942 b2bd 70b7 ae3d
00000150: 73a4 87bc 9eb0 01be da53 2b3d 7e70 a5bc
00000160: 80c2 50bd 48df 493e 09f8 fc3d 6549 4fbe
00000170: 44d7 a13e 2646 1abd 6791 cbbd 5542 1fbf
00000180: dd17 f03d 2277 a73d 294e 843d 3ac3 12bc
00000190: 7540 803e ab6f 653e 44d2 32bf 0329 ffbd
000001a0: 13f6 0d3e 992a 3a3e f977 5fbd 66ed 3fbe
000001b0: 8b38 87bd a94d 33be 531b 1bbe ae10 27be
000001c0: 86af 1f3e 35c0 113e a471 e53d 9f71 a1be
000001d0: c2f3 c3be 6330 5b3e 6062 08be 6349 c23d
000001e0: 0400 9ebe a06d 7f3e 4896 153e 97d6 b0be
000001f0: 32ef cebd b441 e53d fca8 9cbe 22b5 a73a
00000200: 4328 0b3d 79ea 9d3d 325b a9be 4360 3a3e
00000210: 08ae 36be 3759 963d 8282 4d3e 8508 433e
00000220: 8b0e d0bd 052d 373e bf93 3bbe 9659 f43d
00000230: 4421 363e 6c9e 2d3d 3d85 3fbe f30f 7e3e
00000240: 41fa a43e f5bb 22be f04e 4cbc b715 b3bd
00000250: d2ab a83d 93b3 0a3d e3f1 2bbe 6019 a03d
00000260: 5bb8 1d3d d81f a3bb 994b 5d3e 79cb afbe
00000270: c414 0dbb 8e91 383e 9fdf 823d 87c8 8dbd
00000280: b9c9 943e f4bd 4b3e a7e4 593c c309 c83d
00000290: 70ff 1dbe 6624 31bd 0ddf 513e 5aaf 103e
000002a0: 2f9d 633e 60fb 1e3d 1736 c3bd 83e2 b23d
000002b0: f9c2 1abe b4cd b6bd 81de 55be a98b edbd
000002c0: be9e 1cbe 9a0e f2b9 2f0a e73d 2177 163e
000002d0: 4025 bebd 6a1a 1cbd cffa 293d 1f62 18be
000002e0: 784c ecbd e9b4 353d f720 573e 3dc6 8dbe
000002f0: d7e3 603e ebf8 b1be 2f0b 0abe c424 7b3b
00000300: ccc8 8a3d 79e2 203e 395e 673e ff31 ca3c
00000310: 97bb b2be 6f35 9c3b 84f7 193e 5475 30bc
00000320: d173 ee3d aefe cfbc bf32 423d bae7 083e
00000330: 7573 5b3e 7a48 bdbc 7afe 5ebe 06c5 633d
00000340: 7b0c 503d f825 313e f984 4f3c 24c8 913e
00000350: 131c 46be 869a 70be abfd 46bd d4f5 7d3e
00000360: c916 993d 4b89 c13d ffa0 543e ee09 183d
00000370: ad48 aabd 73bd 153e 21f7 d63d c5b3 1a3e
00000380: 6134 553e ad5e 82be 155a 88be 386f b33d
00000390: 69f6 0fbd 8d90 393e fb42 f43d f2a1 72bd
000003a0: bab4 9c3d 36b6 adbe ae03 c83d 15a5 76bd
000003b0: 51f6 42be 9106 523e be1c cf3d 17f7 51be
000003c0: da55 89bd 9140 e7bd 88eb d2bc 8cfc 643e
000003d0: aa44 8a3d e991 693e 7577 d0bd eb5d 9bbe
000003e0: a8d3 233e b8d7 58bd 010b 0bbd 5e8a 883e
000003f0: 1ceb 8a3d 144a 1abe 70e1 4b3d de56 6f3e
-0.4261148 0.048823863 -0.044820245 0.05635806 -0.0069637937 0.07944792 -0.16329664 0.038517103
0.19845068 -0.025306024 -0.024716277 -0.11693933 0.327083 0.02756386 -0.3202574 0.06996939
-0.13612548 0.2706954 0.09856707 -0.2187479 -0.14279823 0.05579001 0.018836416 -0.066565335
0.0688275 0.14905621 -0.15311383 -0.07862767 -0.10625672 -0.47194082 -0.14182428 -0.37515414
0.3007722 0.24946682 0.039411552 -0.10027138 0.10149201 -0.14060047 -0.07139605 0.021588612
-0.13765578 -0.025177052 0.06292506 -0.10759628 -0.055741295 0.10981533 -0.14742792 -0.30803633
0.14660373 0.086154304 -0.1611227 0.19761531 -0.038559366 0.034600545 0.089781985 0.19094431
-0.37036195 0.24561699 -0.06799961 0.0073104454 -0.21213697 0.03717911 0.12557523 0.14374828
-0.16799086 -0.092494175 -0.24946214 0.19476622 0.053419087 0.05535279 -0.056498088 0.1349498
0.05467043 0.069546014 -0.051089387 0.08939051 0.01563788 -0.067194834 -0.30824062 0.039310075
0.36875737 -0.24239187 -0.087041445 0.08531082 -0.016557908 -0.1266503 0.041828014 -0.020195242
-0.05096674 0.19714081 0.123519965 -0.20242842 0.31609547 -0.037664555 -0.09939843 -0.6221059
0.117233016 0.0817702 0.0646022 -0.008957678 0.25049177 0.22405879 -0.6985209 -0.12458994
0.13863401 0.18180312 -0.054557774 -0.18742904 -0.066025816 -0.17510094 -0.15147142 -0.16314957
0.155943 0.14233477 0.11203316 -0.31532 -0.3827191 0.21405177 -0.13318777 0.09486654
-0.30859387 0.24944162 0.14608109 -0.3453872 -0.10104217 0.111941725 -0.30597675 0.0012795071
0.033973943 0.07710738 -0.3307739 0.18200783 -0.17839825 0.07341235 0.20069316 0.19046219
-0.10159024 0.17888267 -0.1831808 0.1193115 0.17786127 0.04238741 -0.1870317 0.24810772
0.3222218 -0.15892012 -0.012469992 -0.08744376 0.08235897 0.03386266 -0.16791491 0.0781734
0.038505893 -0.0049781613 0.2161087 -0.34334925 -0.002152727 0.18024275 0.063903086 -0.06923013
0.29060152 0.1989668 0.013299144 0.09767487 -0.15429473 -0.043247603 0.20495243 0.14129391
0.2222793 0.03881395 -0.09531801 0.0873461 -0.15113439 -0.089259535 -0.2088566 -0.11598904
-0.1529493 -0.00046168716 0.11281239 0.14693882 -0.092844486 -0.038111128 0.041498955 -0.1488118
-0.11538023 0.044361982 0.21008669 -0.27690306 0.21961914 -0.34760222 -0.13480829 0.0038321475
0.0677658 0.15711392 0.22594537 0.024682043 -0.34908745 0.004767112 0.15035826 -0.010770161
0.11643184 -0.025389995 0.047411676 0.13369647 0.21430762 -0.023105849 -0.21776763 0.055607818
0.050793152 0.1729964 0.0126659805 0.28473008 -0.19346647 -0.23496446 -0.04858176 0.24800807
0.07475049 0.09450015 0.2076454 0.037118845 -0.08314643 0.1462305 0.10496355 0.15107639
0.20820762 -0.25462857 -0.26631227 0.08761448 -0.035147104 0.18121548 0.11926838 -0.059236474
0.07651658 -0.33928078 0.09766327 -0.06021603 -0.19039275 0.20510317 0.10112904 -0.20504414
-0.06705828 -0.11291612 -0.025747076 0.22361964 0.06751378 0.22809567 -0.101790346 -0.3034509
0.15998709 -0.0529401 -0.03394604 0.26668066 0.06783125 -0.15067321 0.04977554 0.23372981

hidden_layers.7.bias f4 [100]
00000000: b332 2b3d 715a 113f 37d3 6bbe fb47 b03e
00000010: c3cc e2bd 9ce7 74bd 279a e03d beba ca3e
00000020: cd49 27be b77d 09bf d19d c8be 3958 073e
00000030: 49f3 243e e6c6 10be 33b4 7fbe f425 0c3f
00000040: e9df b23e b5e5 efbd f661 10bf ae6b 59be
00000050: 3b04 cc3e ce19 443d 0623 5a3f 5148 f93d
00000060: 611c 863e cc75 0e3f 0f25 8f3e 5ad6 663d
00000070: 4e2b cc3e 9284 923e bd9d 663e a275 96be
00000080: 5e85 c13d e10c 273e eb2f f33e 2e1d 573f
00000090: 3e91 51be bbf5 64be 8854 90be c768 c03e
000000a0: 7367 e33e 55bc a5bd 0032 05be 0d05 9b3e
000000b0: c96c b1bc 3f92 c63d b851 90be b3af 1dbb
000000c0: 6145 d53e 2f3f c03e 275f 963e 58d0 713d
000000d0: 5f7f 1a3f 8670 553e d70c 3cbe 45df 58be
000000e0: f2b2 8d3e 72e1 cf3e 8eb8 f93e 7d68 0c3f
000000f0: 4550 afbc 7a8a f43b e817 fcbc 26fa 483e
00000100: 915c 113f 4b93 0dbf ddcc 173f 6f5f 7f3e
00000110: 3ea0 e9be f964 e83e 2f48 0c3c e079 683e
00000120: 8c74 d93d ab18 523d 3ac5 82be 2306 87be
00000130: 252d 83bd 625b 213b f31a 1ebd 3f09 88bd
00000140: 0078 6b3e 092f c9bd 9ddf 5e3e ec3e 19bd
00000150: 8227 763e b1b4 933e f330 8c3e 93c2 aebd
00000160: 088c 69be cb26 6abe fecc ebbd fdc2 eabd
00000170: 606f 233f f00b 583d 5cca a9be fa6c fcbe
00000180: bd4e f13e 671b 4e3e e894 a8be 6f73 fe3e
0.041796397 0.5677863 -0.23029791 0.34429917 -0.110742114 -0.059791192 0.10966902 0.39595598
-0.16336747 -0.5370745 -0.39182904 0.13217248 0.16108431 -0.14138374 -0.24971084 0.5474541
0.34936455 -0.11713735 -0.56399477 -0.21232483 0.39846978 0.04787617 0.8520969 0.121719964
0.26193526 0.55648494 0.2795796 0.056356765 0.3987679 0.28616768 0.2252111 -0.29386622
0.09449266 0.16313507 0.47497496 0.840289 -0.20465562 -0.22359364 -0.28189492 0.3757994
0.44414863 -0.08092562 -0.13007355 0.3027729 -0.021658318 0.09695863 -0.28187346 -0.0024061024
0.41654494 0.37548205 0.2936947 0.059036583 0.603506 0.20843706 -0.18364273 -0.2117892
0.27675587 0.4060169 0.48773617 0.54846936 -0.02140058 0.0074627968 -0.030773118 0.19626674
0.5678187 -0.55302876 0.5929697 0.24938749 -0.45630068 0.45389536 0.008562132 0.22702742
0.10617933 0.051293056 -0.25541097 -0.2637187 -0.06405095 0.0024621119 -0.03859992 -0.066423886
0.22994995 -0.09823424 0.21764989 -0.037413523 0.24038509 0.28848794 0.27381095 -0.08533206
-0.22807324 -0.22866361 -0.115137085 -0.11462972 0.6384182 0.05274576 -0.331622 -0.49301893
0.47130385 0.2012764 -0.32926106 0.49697444

hidden_layers.9.weight f4 [300, 100]
00000000: f869 b23d 78d4 b83c 4e4e 7d3d 581f cd3d
00000010: 6d7a 54bd 955f 68bd e815 953c 2de2 5ebe
00000020: 0505 f5bc 05c0 953d 59d2 91bd 4acf b5bd
00000030: 6fcc 093d dc02 ab3d 2102 193d 30f6 25bd
00000040: 6aec b03d d9e2 f43b 6ee1 f93d 5f96 7b3d
00000050: f65f c73d 8a0e 3cbd 3c0e 3a3c f523 83bd
00000060: 81f1 19bc 4730 71bd 2ce6 313d 38dc c03c
00000070: 607c c33c 0071 35bd 7d35 f8bd 3812 4939
00000080: 71c7 2b3d 99b8 073e 0cbd a23d c477 883d
00000090: 94d1 04be 9be9 dd3d 1624 4b3d 7c64 29be
000000a0: beef 893c e2f5 94bc 8367 4abd 42ac 43be
000000b0: 687b eebb 077a aabc e63b 02bd bbdf aebb
000000c0: e0bd 433b 8039 25be 0c13 a93d 4ced ebbc
000000d0: 4dba ddbd 505d d0bc f8a1 25bd df11 8bbe
000000e0: f43b e13d 9e40 c83c 4067 6fbd 951f ad3c
000000f0: 6b1d 083e 883a cabd 6275 5f3d 5b71 5bbc
00000100: 29b3 80bc ad90 c6bd 0982 8a3d 6a67 be3c
00000110: 9e6f 86bd 2559 843d 95a1 8b3c 1c5d 17bc
00000120: 6c3c 12bd fefb 72bd 1e02 08bc efd9 f53d
00000130: 0ab9 e73d e27c be3d 287b 073e 0a5c bb3d
00000140: 0318 c83c 61b9 04be 5fe1 8fbd 4c1b 1f3d
00000150: 5a48 cc3d 9590 9b3d edc5 aabd 9036 3d3d
00000160: d5a8 cb3d a2fb 2abd cdfb bebd 0a0b 423c
00000170: eb70 cf3d e636 273e a7c9 40bd b7ed 93bc
00000180: 15de 2d3e 19c3 253d 68c8 083e 5ece 273e
00000190: bd3b 023e 5899 1e3e 4a1d 263d 68d4 02bd
000001a0: f37d 6cbd 42f3 4e3d f087 46bc a97a b0bc
000001b0: 27a3 84bc 7e26 61bd 691b 6c3d 41eb a03d
000001c0: 47be 993d a12b 9dbc 6052 84bd e16f 623c
000001d0: 534d 963d 7f6a 383d 8389 e53d 41a3 a43d
000001e0: a9a1 05bc b263 76bd 1b3a e2bc 52cc 9cbd
000001f0: b9f0 fcbc 411f cbba 5b5c 083d 5cc2 893d
00000200: 4a1d a2bd 5169 43bd e65b cd3d 9b70 143d
00000210: 12be 45bc 7786 57bd 6ae1 a83d f7fb edbc
00000220: 8e47 c6bc 2b95 9abd 440c 24bc 8a4f f4bd
00000230: e9e6 8bbd 07fd d53d 9d87 b83d 8f28 223c
00000240: 5a7e 413e 9adf ee3d 4502 ac3d 94be 953d
00000250: 40ea 59bd 766d e33c bcd3 903b 2ced 6bbd
00000260: 2b5a e9bd 9b55 29bd 175a 35bd e530 06bd
00000270: 5abe 3e3d 4b68 333d 5451 1b3d e721 1b3e
00000280: fdba b6bc 32f2 753d b95e c33d 63be f1bc
00000290: 95df dd3c 8805 edbc 6185 5bbd f5ad 0d3c
000002a0: 0bef 313d 619e 38be f2c5 2dbe 1f5b c9bd
000002b0: 6935 dbbc eb23 81bd fe91 8f3c 9071 9bbd
000002c0: aac4 823d 5f9e 093d a44c 9e3d f611 4cbd
000002d0: 492d b7bc 4b88 013e 5a9e 9d3d fc93 603e
000002e0: d2ba 123d 974b 65bb 8747 533b 7c2a 1bbe
000002f0: 6ad4 6a3d 76d1 00bd 97e4 a63d b72e eb3c
00000300: 0d0f 9bbd 2e64 f93d fac2 37bd 9b88 94bd
00000310: 273a 203d 1f10 8b3d 87d1 efbd 00fd 953d
00000320: 57ba 18bd e4b0 9a3d eb32 72be dc97 4bbe
00000330: c483 a53d 5a51 f3bd 2f20 07ba 58cf cfbd
00000340: f261 e5be 6294 0abe e662 91bd 53be d6bb
00000350: fd45 a03d 9979 dabd 59c8 cf3d f3fd 12bd
00000360: 34de 043e 5e86 ef3c 1b43 553e 9767 76bd
00000370: 3bcd 93ba 88bf 0438 42a2 c43d 1ac0 7cbd
00000380: d452 6abb 0b48 87bd caac d83c 48b7 0e3c
00000390: 069c db3d db3f 25be 2b4a d43d 2038 1abe
000003a0: ffab a33d 5693 723e 551d ab3d 8b80 55be
000003b0: da1e 69bd b5a0 b0bd a9ea 34bd 29d0 c2bd
000003c0: 2a96 97bd 7d21 a33d c479 1d3e 4dfe c13c
000003d0: 81b1 a13d 27b9 3fbe 5d97 cabd 903f 82be
000003e0: 775e 073d 20a5 4dbe 65ac e33c 1eb1 023d
000003f0: 3acd 16be 0baf 86be f8d5 263e ee84 7b3b
0.08711618 0.02256225 0.061842255 0.10015744 -0.051874567 -0.05673178 0.018198922 -0.21765967
-0.02990962 0.073120154 -0.07120199 -0.08877428 0.03364223 0.08350155 0.037355546 -0.040517986
0.086388424 0.0074733314 0.122012004 0.061422702 0.097351 -0.045912303 0.011355933 -0.06403343
-0.009395958 -0.05888393 0.0434324 0.023542508 0.023863018 -0.04429722 -0.12119577 0.00019175641
0.04193825 0.13254012 0.07946214 0.066634685 -0.12970573 0.10835572 0.04959496 -0.16542238
0.01683795 -0.018183652 -0.049415123 -0.1910868 -0.0072778948 -0.02081014 -0.031795405 -0.0053367293
0.0029867813 -0.16135216 0.08255586 -0.028799675 -0.1082655 -0.02543512 -0.04043767 -0.27162072
0.10997763 0.024444874 -0.058448076 0.021133224 0.13292472 -0.09874445 0.054555304 -0.013393725
-0.01571043 -0.096955635 0.067630835 0.023242671 -0.06564258 0.064623155 0.017044822 -0.009238508
-0.035702154 -0.05932235 -0.008301286 0.12004458 0.1131459 0.09301163 0.13230574 0.091484144
0.024425512 -0.12961341 -0.07025408 0.03884439 0.099747375 0.07595936 -0.083385326 0.046194613
0.099443115 -0.041743882 -0.09325371 0.011843452 0.10128959 0.16329536 -0.04706731 -0.018057687
0.16979249 0.040469263 0.13357699 0.16387317 0.12718101 0.15488183 0.040555276 -0.031940848
-0.057737302 0.050524957 -0.012117371 -0.021542864 -0.016191078 -0.05496835 0.057643328 0.07857371
0.07506996 -0.019185843 -0.06461024 0.013820619 0.07338967 0.045023438 0.11207869 0.08038951
-0.008156219 -0.06015367 -0.027615597 -0.076561585 -0.030876504 -0.0015496985 0.033291202 0.06726524
-0.07915743 -0.04770786 0.10027294 0.0362402 -0.012069242 -0.05261847 0.08246119 -0.02905081
-0.024204042 -0.07547983 -0.01001269 -0.11929233 -0.06831152 0.10448652 0.09010241 0.009897365
0.18895856 0.11663742 0.083988704 0.073117405 -0.053201914 0.027762156 0.004419772 -0.05759923
-0.11394151 -0.041341405 -0.04427537 -0.032761473 0.046568252 0.043800633 0.037919357 0.15149651
-0.02230596 0.06004543 0.09539551 -0.029509729 0.027084151 -0.028933302 -0.053593997 0.008647432
0.04344086 -0.18029167 -0.16970041 -0.09831833 -0.026758866 -0.06305679 0.01752567 -0.0759002
0.06385167 0.0335983 0.07729462 -0.049821816 -0.02236046 0.12649648 0.07696219 0.21931452
0.035822697 -0.0034987682 0.0032238679 -0.15152925 0.05733148 -0.031449758 0.08149069 0.028708799
-0.0757123 0.12177311 -0.04486368 -0.07252618 0.03911796 0.06790184 -0.11709886 0.073236465
-0.037287083 0.075532705 -0.23652236 -0.19882149 0.08081773 -0.11880751 -0.0005154637 -0.101469696
-0.4480129 -0.13533166 -0.070989415 -0.00655345 0.07825849 -0.10667724 0.10145635 -0.035886716
0.12975389 0.029238876 0.2082638 -0.060157385 -0.0011276373 3.164963e-05 0.09601261 -0.06170664
-0.0035754936 -0.06605538 0.02644958 0.00871069 0.107231185 -0.1613764 0.10365709 -0.15060472
0.0799179 0.23689017 0.08355204 -0.20849817 -0.056914188 -0.086244024 -0.044169102 -0.0951236
-0.074016884 0.07965372 0.15378481 0.02368083 0.07895184 -0.18722974 -0.098921515 -0.2543912
0.033049073 -0.20082521 0.027792165 0.031907193 -0.14726725 -0.26305422 0.1629256 0.0038378793

hidden_layers.9.bias f4 [300]
00000000: b0d7 9e3d 934d c2bd df08 92be 25f9 5ebd
00000010: a212 3cbd feca c73c a7cc 84be 9729 ae3d
00000020: d06f 3a3e 46ad 993c 1fc4 643e 03bf 503d
00000030: 5834 bf3c af82 f33d d412 a7bd ff1c 3d3e
00000040: 72d4 0e3d 79d2 423e bcaa 0a3e 6403 c9bc
00000050: 6970 683d f5b4 603e 16c4 05be 4916 1c3e
00000060: 5020 6f3e 67d9 983d a3f1 2ebd 024b 893d
00000070: 3121 4e3e 36a1 713e b4de b0bd 48e0 e23d
00000080: dedb debc 7294 ba3d 4d96 513e 0d5a 6b3e
00000090: f714 96bc 33ee d13d 9fc8 893e 4f7e 2ebd
000000a0: 34ae 183e 0301 983e e5e6 77bd 0f33 18bd
000000b0: 598b 343e 4330 02be a9f8 6dbe 3a9f b1bd
000000c0: 269d 5aba dbe1 c9bd 0bd8 0b3e 4ce3 aeba
000000d0: 5d56 653e f166 063c ddd9 82bd 658e 3b3e
000000e0: b309 623e 9991 813d 5cf3 1b3e a54b 803d
000000f0: 1780 963d 1692 8d3e 31dd f53d 5c97 0a3e
00000100: e685 863e b18e 0b3c 29cd dabd 94a1 43bc
00000110: 17a5 853e f235 003e 1498 393e baef cebc
00000120: 13ba db3c 3283 d03c c85f 18bd 5cec 833e
00000130: 6072 9fbd 09b6 973e a703 433d c242 0fbd
00000140: 18c3 38be 2835 fcbd 7c40 af3e 5457 3a3e
00000150: 6959 c43d 0c02 bbbc e6f1 c6bd f5bc 14bd
00000160: 05c6 1d3e afb1 8d3e a67d 803c a67b 43be
00000170: db64 9a3d 3005 983e 2960 9a3e b90f 203e
00000180: 3c72 453e 5809 863e 554f f73d f0b6 f3bd
00000190: 60a6 2a3e c43e bb3e 3292 233e 5483 6b3e
000001a0: 433d 003e c4d0 f2bd 70a3 99bd 95f5 3fbe
000001b0: 77f6 073e e915 9a3e 8a00 ad3c b495 d43d
000001c0: 201d 023e b52a ca3c 6a49 f83e 58f3 af3d
000001d0: 9c7a c83d 3f5c 6e3e 4c49 4ebc a03c 923d
000001e0: 5355 9cbd 2f2c 273e 326c 0f3d 94d0 0f3e
000001f0: c043 0c3b e133 e53d fdb9 703e f9aa 823e
00000200: 5213 353e c2d3 5e3e e5db a6bd 706a a03d
00000210: 30a9 d93c 7b9f ac3e 922a 12bd 1629 ee3d
00000220: c50b 01be a39a a03c f9c9 0d3e 14ca 043e
00000230: f02e 693e 87c8 c93d f000 8d3e 3149 383d
00000240: 443d 16bc c4db 693e 0b51 413e c09d 923e
00000250: 801a 4b3e 08c3 843e 0126 193e 283f c5bd
00000260: 80a5 35be 7d42 d7bd acec d33d d911 4e3e
00000270: 8df8 a23e 5d43 b0bd aac1 2e3e 9885 dd3e
00000280: a53d 663e 6dd6 b13d 4948 853c ef60 8a3d
00000290: 9551 88bd 6072 8bbd 1c1e 713d 439b 933d
000002a0: b5ba dd3d 62ff b83e f1b6 28be 9432 bdbd
000002b0: 7539 e33d d0cc 65bd 212c 29be 6e57 323e
000002c0: d905 af3d 2312 5d3e d2cb a538 5299 1f3e
000002d0: bbd4 983e c989 e4bc 6546 ec3d 12a1 643e
000002e0: 75f9 94bd be9f b73c eb36 853e 30fb bc3e
000002f0: bd72 3dbd 288c ba3d 8f33 dfbd d1d4 aa3d
00000300: 8dc4 46be e623 5b3e 56c5 063e 2c52 cf3c
00000310: 46a4 8b3e aaae 4e3e 6667 5f3e 81a8 2f3e
00000320: 274c 2d3e c330 96bd 6069 2fbe 7810 a4bd
00000330: b943 873e 1221 be3d 01b2 9ebd 7ff6 e8bc
00000340: 28bb 72bc 42fb d5be acc8 7a3c 0b22 89bd
00000350: 5be9 f93d f236 6dbc eb8d 00bd e7ee 533e
00000360: d18d 223e a3da 8cbd e6f2 d83d d417 f9bd
00000370: 92d4 823e f385 07be afb7 1ebe 5a93 153e
00000380: d538 773e 2388 40be 8d12 053e 11a5 483c
00000390: 3c97 403c d805 43be 19b4 11be 7ff1 8b3e
000003a0: 8f53 9a3e 9948 6e3e 29a1 d33e 1ae7 efbd
000003b0: cedc 283e 4863 883e 818f 903d a40f c53e
000003c0: ff00 d3bd 659c f03d 71fe a5bb 706a 95bb
000003d0: 4b56 17be bf28 40bd b31b 093e 8025 9ebd
000003e0: a915 3dbe 0ec0 5fbd 198f 4f3e 3bb2 afbd
000003f0: 79d7 51bc a2dc 63bd 55dc d9bd 7eaf 313b
0.07755983 -0.09487452 -0.28522393 -0.05443682 -0.045916207 0.024388786 -0.25937387 0.085040264
0.18206716 0.018759381 0.2234044 0.050963413 0.02334039 0.1189016 -0.08157888 0.18468092
0.034870572 0.19025601 0.13541692 -0.02453775 0.056747828 0.2194403 -0.13063082 0.15242876
0.2335217 0.07463341 -0.04271091 0.0670376 0.20129849 0.23596653 -0.08636227 0.110779345
-0.02720445 0.09110345 0.20467491 0.2298357 -0.018320544 0.10250511 0.26910874 -0.042600926
0.14910203 0.29688272 -0.060522933 -0.03715807 0.17631282 -0.12713723 -0.23239388 -0.08672948
-0.0008339457 -0.09857532 0.13656633 -0.0013342886 0.22396226 0.008203254 -0.063892104 0.18316038
0.22074012 0.06326599 0.15229553 0.06264428 0.0734865 0.27650517 0.120050795 0.13534302
0.2627403 0.008517907 -0.106836624 -0.011940379 0.26102516 0.12520579 0.1812442 -0.025260795
0.026822126 0.025453184 -0.03720072 0.25766265 -0.07785487 0.2963107 0.047610905 -0.034975775
-0.18043172 -0.12314826 0.34228885 0.18197376 0.09587366 -0.022828124 -0.09714107 -0.036313016
0.1540757 0.27674624 0.015684914 -0.19090137 0.07538768 0.29691458 0.3015149 0.15630998
0.19281858 0.26179004 0.12075678 -0.11900127 0.1666503 0.36571324 0.15973738 0.22999316
0.1252337 -0.11856225 -0.07501876 -0.18746026 0.13277613 0.3009484 0.021118421 0.10380116
0.12706423 0.024678567 0.4849351 0.08591336 0.09789011 0.23277377 -0.0125907175 0.071404696
-0.07633462 0.16325448 0.035015292 0.1404441 0.0021402687 0.11191536 0.23508449 0.25521067
0.17683151 0.21760467 -0.0814741 0.07832801 0.026569933 0.33715424 -0.03568513 0.1162893
-0.12602146 0.019604987 0.13846578 0.12967712 0.22771811 0.09852701 0.27539778 0.044991676
-0.00916988 0.2283774 0.18878572 0.2863598 0.19834328 0.25930047 0.14955904 -0.09631187
-0.17738914 -0.105107285 0.10347876 0.20123996 0.31830254 -0.086065985 0.17066064 0.43265986
0.22484453 0.086834766 0.01626982 0.0675677 -0.066561855 -0.06808925 0.058866605 0.07207348
0.10826627 0.36132342 -0.16476037 -0.09238163 0.110949434 -0.056103528 -0.1652074 0.17416164
0.08546037 0.2158895 7.9057776e-05 0.15585831 0.298498 -0.027897732 0.11536864 0.22327068
-0.07274143 0.022415038 0.26018462 0.3691039 -0.046252 0.09108764 -0.10898506 0.08341373
-0.19410916 0.21400413 0.13161215 0.025307737 0.27273768 0.20183817 0.21816787 0.17154123
0.16923581 -0.07333519 -0.17130041 -0.08010954 0.26418856 0.092836514 -0.07748795 -0.028437851
-0.014815129 -0.41793257 0.015306633 -0.06695946 0.12202712 -0.014478432 -0.031385344 0.20696603
0.15874411 -0.06877639 0.10593204 -0.12162748 0.25552803 -0.13234691 -0.15499757 0.14606991
0.24142773 -0.18801932 0.12995358 0.012246386 0.011754807 -0.19045198 -0.14228858 0.27332684
0.30141875 0.23269881 0.41333893 -0.11714001 0.1649048 0.26638246 0.07058621 0.38488495
-0.10302924 0.1174858 -0.005065732 -0.0045598075 -0.14779012 -0.04691386 0.13389473 -0.07721996
-0.18465294 -0.054626517 0.20269431 -0.08578917 -0.01280772 -0.055630334 -0.10637728 0.0027112658
