resources/pytorch_models/autoencoder_distances_volume_centroids_mean_dose_129x9x13.pt (torch, 544321 bytes, 12 tensors)

hidden_layers.0.weight f4 [300, 117]
00000000: fc5c 873d a9f1 44bb 6f85 013d 9d52 803d
00000010: 4be2 e5bd 8d45 bc3c db1d 0c3d 0c0f 803d
00000020: 59e2 e23c c748 6dbd bfed 67bd b58f 3abd
00000030: 675e 8b3c d833 b13b 3b91 7fbd f37e dfbc
00000040: eecc 453d 74d2 2a3d d6dc babd 9101 6abc
00000050: 4243 43bc 4d7f 96bd aab7 f0bc 56ec a1bc
00000060: 36a9 a63d fc0c db3c 902a c63d ea55 19bb
00000070: a472 5b3d 3294 553d 95ed 493d ed12 03bd
00000080: a93d 17bd ad40 b0bd 43cf e7bd 71c0 b53c
00000090: 876e 9abd a8ca 6dbd 610e 5bbd 60f9 18bd
000000a0: 3d08 77bd 1b1a 81bd d8e1 c3bc a72e c8bc
000000b0: 9aa0 1b3e a4f2 8ebd 2a71 933d d3ee b83d
000000c0: b1ae 5f3e 593c db3d 17cc 05be d643 ccbd
000000d0: d148 2c3d e69d c6bc 70a2 fabd 9140 6abd
000000e0: 9049 593d abe8 bdbd 0662 22be 2e42 49bd
000000f0: 585c 19be 7ccc 233e be42 f5bd 9905 5d3d
00000100: 17f7 71bc ce42 3f3d 4e68 293d 1ccd 833d
00000110: 8eb4 573d 8b87 88bd 1f25 7f3d 8df2 01bd
00000120: f0ad cbbd 1457 813d 1362 0a3d 35c1 cf3c
00000130: d96b edbd 1249 a7bc bd58 393d 738d d3bd
00000140: fa5e 5a3c a1f2 32bc 2b38 9b3c 8522 b7bc
00000150: 9906 0bbe a737 febd 14a3 3e3d 44cf 89ba
00000160: 9c6c fa3d 4aa3 1b3a b3d0 3f3d cb6a 193e
00000170: c1cd 9a3d 114c d33c 33c4 42bd 2c70 19be
00000180: 9ec8 263d 954a 93bd 2a5f 72bd 6ce8 763e
00000190: 46e2 1e3d b249 153e f9c9 eb3d fe22 2e3c
000001a0: d694 043d 25ad 003e 7be6 c43d b15d 033d
000001b0: 0c95 adbd 2a37 813b bad3 c4bd c5c3 fbbc
000001c0: 4c1e 713c eae2 c03c 2b22 d3bd 88c2 343c
000001d0: 9cb2 093e b5c0 c33d 72af c9bd 8fd9 75bc
000001e0: 9ca6 82bd 43e8 b4bc 737f 53bd bc63 abbc
000001f0: 8147 26bd 38d8 153d 36b8 86bd b5d7 493e
00000200: 5779 3c3d cd78 5ebd 71ff 19bd 3ad8 ccbd
00000210: 568b 11bd 339e 6cbc 47d1 a43c b068 42bd
00000220: 8d8e f8bd d513 bbbd 40cf 343a 8c40 c23d
00000230: 47e0 403b b478 b5bc 7a2b c33d bb77 c0bd
00000240: e817 223d 231e 9fbd f4e5 63bd 8ce1 10bc
00000250: c278 79bd b90e 9cbd 4fa3 d7bd cee8 c4bc
00000260: 5273 c6bc 6717 8e3d 3a70 d73d bf98 b9bd
00000270: 81db 35bd 9395 d0bc c837 39bd a2ba 283d
00000280: 8d57 8dbd 4dd2 9dbd c88f 453c 97cd 09bd
00000290: 83c1 9a3b d617 45bd 4e9f 9f3d 42a7 313b
000002a0: 606a b13b 04d4 fbbb 1ad2 a3bc 5936 11bd
000002b0: f2b3 503d 1093 f6bd 3a33 3c3d 8489 9ebc
000002c0: 6bd3 57bd 7971 c13b b028 213d 54d7 d5bc
000002d0: c29d 7e3d 8b89 433d 59d1 123d 8931 a83d
000002e0: b01b 8abd 49d1 d4bd 4277 933d 989c 053d
000002f0: d035 08bd c3d2 8abd 682b b4bd 26fa ca3b
00000300: 8b59 fb3d 0805 d3bc 3edb a33c 5ed2 08be
00000310: 4839 f0bc 7a64 ccbd 9aaf a5bd 4cc8 253d
00000320: b7ea 3abd 9751 19be 762c 39bd c80a b5bd
00000330: 577b b8bc e3cb 563d d2f3 1abd d557 31bd
00000340: bba7 c9bd d9b4 c3bb 3ca5 703d 0896 e43b
00000350: 9309 c4bd 1ca5 fd3a 9de6 36ba 24c2 fb3c
00000360: aef1 85bc f038 b1bd 886a 1e3c aecb 9a3c
00000370: a2dd 593c ddd3 eabc 9b68 babd 3afc 063d
00000380: 1514 d1bd 2265 a0bd dfa2 afbd 4aab f93d
00000390: 0df3 b9bc 2612 0b3e c49d 933d aa5a 903d
000003a0: f6d7 cb3c 8171 a0bd ff01 ab3d 647d 39bd
000003b0: 70c6 29bd 7f74 7f3d 78bf a4bd dced f6bb
000003c0: b5b5 b1bd 9832 9ebd 22f4 043e ccb9 83bb
000003d0: 6133 09be 0a98 08bd 89b7 8f3d bc38 8d3d
000003e0: 9e4d 89bd 9287 e93d 7b7e 8c3c ed8f 063d
000003f0: c7cb 8b3d db4b 2e3e 86eb 02bc 0000 83be
0.06609532 -0.0030051267 0.031621393 0.06265757 -0.112248026 0.022982383 0.03420816 0.0625287
0.027695822 -0.057930734 -0.056623217 -0.045547206 0.017012788 0.0054077916 -0.062394362 -0.027282214
0.04829114 0.04170461 -0.09124152 -0.0142826 -0.011917891 -0.073484994 -0.029384453 -0.019766014
0.08137743 0.02673959 0.09676087 -0.0023397156 0.053576127 0.052143283 0.04929884 -0.03200047
-0.036924038 -0.08606086 -0.11318829 0.02218649 -0.07540613 -0.058054596 -0.05348051 -0.037347198
-0.06031059 -0.06303807 -0.023911402 -0.024436308 0.15197983 -0.06979874 0.07199319 0.09029927
0.21843983 0.1070487 -0.13066135 -0.09973876 0.04206163 -0.024245214 -0.12238014 -0.05719048
0.05304867 -0.092728935 -0.15857705 -0.04913538 -0.14976633 0.15995973 -0.11975621 0.053960416
-0.0147683835 0.04669457 0.04135924 0.06435606 0.052662425 -0.06666478 0.06229126 -0.031725455
-0.09945285 0.06315437 0.033784937 0.025360683 -0.11592836 -0.020420585 0.045250643 -0.10329714
0.013328308 -0.010922105 0.018947681 -0.022355327 -0.13576736 -0.124129586 0.046542242 -0.001051404
0.12227747 0.0005937113 0.04682989 0.14982145 0.07558776 0.025793107 -0.04755039 -0.14984196
0.040718667 -0.0719196 -0.059172787 0.241121 0.03879001 0.14578894 0.115131326 0.01062846
0.032368504 0.1256605 0.09614273 0.032071773 -0.08475694 0.0039433436 -0.09610696 -0.030732999
0.014716696 0.023545701 -0.103092514 0.011032708 0.1344704 0.0955824 -0.09847917 -0.015005483
-0.063794345 -0.022083407 -0.051635217 -0.02092158 -0.040595535 0.036583155 -0.06578104 0.19711192
0.046014156 -0.054314423 -0.037597124 -0.100021794 -0.03553327 -0.0144420145 0.020119322 -0.04746312
-0.121365644 -0.09134642 0.0006897338 0.094849676 0.0029430555 -0.022152282 0.09529777 -0.09397837
0.03957358 -0.0776942 -0.055639222 -0.008842837 -0.06090618 -0.076199956 -0.105291955 -0.024036791
-0.02422491 0.069380574 0.105194524 -0.09062337 -0.04439879 -0.025461948 -0.045219213 0.041193612
-0.069014646 -0.07706127 0.012058206 -0.03364333 0.0047227754 -0.048118435 0.07794057 0.002710775
0.005414292 -0.0076851863 -0.019997645 -0.03545222 0.05095286 -0.12039769 0.04594729 -0.019352682
-0.05269186 0.0059034196 0.039345443 -0.026103653 0.06216217 0.047738593 0.03584418 0.08212573
-0.06743562 -0.103914805 0.07200481 0.032620043 -0.033254445 -0.06778481 -0.087973416 0.006194371
0.12272938 -0.025759235 0.020002004 -0.13361499 -0.029324189 -0.09980102 -0.08090134 0.04047422
-0.045633998 -0.1497253 -0.045208417 -0.08839947 -0.02251975 0.052440535 -0.03783018 -0.043296654
-0.09846445 -0.0059724865 0.05875133 0.006975893 -0.09572139 0.0019351575 -0.0006977113 0.030732222
-0.016350593 -0.08653438 0.009668954 0.01889595 0.01329747 -0.028665477 -0.09101983 0.032955386
-0.102089085 -0.078317896 -0.08575987 0.12190874 -0.022698903 0.13581142 0.07207826 0.07048543
0.024883252 -0.07834149 0.0834999 -0.045285597 -0.04144901 0.06236696 -0.08044332 -0.0075356793
-0.08677236 -0.07724494 0.12983754 -0.0040199514 -0.13398506 -0.03334812 0.070174284 0.06895587
-0.067042574 0.11402811 0.017150154 0.032852102 0.06825977 0.17021124 -0.0079907235 -0.25585938

hidden_layers.0.bias f4 [300]
00000000: c211 b63e 253b 433e ed36 0abd 7b96 6f3d
00000010: 006f 263c fbff b5bd 99a8 6e3e 89c6 e03d
00000020: 6bb8 e83c 99db 1dbd 75d5 a63e 609f 983c
00000030: fc7a 6d3d b92b 433e f388 563e 3e3e 933e
00000040: e890 833e 3a27 323e 0748 5b3e eb27 b43d
00000050: 2e2a 44bc e761 b93e 646a 50bd 8760 bd3d
00000060: c5c5 873e 1ff4 f93d 3ac9 493d 6e81 acbd
00000070: 1237 55bd c66b 373e 1c58 803e 24c8 833e
00000080: 3c09 2ebd b8e1 ba3e 5255 d33d 7391 263e
00000090: fdf7 a43e 8cf8 163e 4f52 eebd 36ec 93bc
000000a0: 9404 ef3e 5a2b 4e3e 4c95 dd3e 62f4 913d
000000b0: eaa4 c33c 5f91 933d eb0e b13e e0c2 ff3c
000000c0: 7e3e 903d d2a2 07bd 687f edbc c461 04bd
000000d0: 9d0b e13d a09d 09be 8f8f 2a3e fd5c 1cbe
000000e0: e3fb 5c3a dbc9 903e 796e 393e d0d6 be3d
000000f0: 7f8d b63e 3b13 b13e 9953 033d db43 af3d
00000100: f814 84bc da86 093d 096e 773e caa5 7b3d
00000110: 7361 10be 5bf9 e63d dbf4 233d 9c29 093b
00000120: 406e a43e 6343 403e 2a14 903e 9ae0 163e
00000130: 671d 593d 74b6 a03c 425f 933e 330d 5c3b
00000140: e9e2 6fbe 727c 3dbd 0a37 d83d 1180 c53d
00000150: 36f2 7a3c 25f8 113e 1c82 81bd c5c0 2fbe
00000160: 6350 9d3d 780a 403e 0631 5abe 2074 13bd
00000170: d7b9 7b3e 2fbc 533e c0f9 923d 8ae4 bd3d
00000180: 346b 933d c273 dfbd b399 85be 02f6 233e
00000190: 98e8 b23d c5f9 ad3d 0ebf 223d 7d2b 1fbc
000001a0: 2740 bdbd 5842 efbd fba0 393e c63c 25bc
000001b0: 13ea 64bd 5731 9b3c 4158 d83d 27d4 e9bd
000001c0: 3cf1 923d dd79 13be d58d 793c 0ff2 8a3d
000001d0: 639a 4f3e c5da 633d 28f4 663e 4f05 32bd
000001e0: 9bd0 943d 581a 1d3c 7b16 2e3e a0b3 273e
000001f0: b739 443d 6e26 933d b37d 473d d6e9 9dbc
00000200: 3a58 2b3e 84be b43d ab43 e03d 2331 b0bc
00000210: cb66 e4bd fff6 a73d ecb8 7d3d bc7d 773c
00000220: 24a0 c73d 2d67 2a3e f834 803e b287 dcbd
00000230: 0f99 abbd 9d62 7f3c 2c38 8cbe 8c98 263e
00000240: bd24 853e 63a9 2f3e 572d 053e 8bbf 213e
00000250: 8fe2 333d 5a24 573e 1b37 babd e17d 043e
00000260: 462c 0d3d 9365 303c e152 3bbe 02dd 0d3d
00000270: c7f3 333e d16e 083e 1c4d 873e 147c d43d
00000280: 40f0 773d 318a 373e 5e89 f8bd 0afe 103e
00000290: 6158 7a3d cd8a 74be 862e 37be e76d cf39
000002a0: 8a40 5d3e df93 043e c6e5 263d 7abd e03d
000002b0: f302 f33d d3d7 333e 0a6b 0abe e9b9 793d
000002c0: d1d4 563e 94bf 803e faba a53e 7b26 ddbb
000002d0: 76da 603d 0c2c 243e 7026 a9bd b520 7b3d
000002e0: 7efd ed3e 4c03 f03d 76f4 5ebe 5376 2b3d
000002f0: befa 313d 591f 5a3e a01c a8bd 4170 e03d
00000300: f831 363e 1348 93bc 3e78 673e 7ffb 033d
00000310: 5be2 383b 86a7 3f3e e233 9bbe a1a8 503c
00000320: a8fc 5d3e d613 153e e691 6d3e 8e8a 953d
00000330: 48b6 4fbb 579a 923d 3e5c c43e 527c a33c
00000340: c2ab 3a3d f944 3d3e 01ac a63b 6fea 6e3e
00000350: 4c45 0a3e 1003 c5bc 406d 933d 8ef3 883c
00000360: 318f 3c3d b4cb 953e ce8f 8f3d 709b 90bc
00000370: 5d7f 6e3e 7fc0 863e 412b d23d 0d75 49be
00000380: 7905 9f3e e2bd 943e 1a74 423e eb6d e4bd
00000390: 7527 50be 6a55 af3d b038 a33e 3b35 db3d
000003a0: d2ce e03d a38d 793e 5faa babc 2516 0e3e
000003b0: e630 813e 6ce1 0e3e cd9c 1b3e 42e6 093e
000003c0: a5b8 8c3e dfb1 c23e 73bc 283e 2cb6 83bd
000003d0: 412c 863d a1c6 0e3e 41e3 8e3c db10 333e
000003e0: c7ab 67be 4daa 123e b4e4 29b8 be00 e63d
000003f0: 261e 203d c229 8e3e 1869 673e 454a ca3d
0.35560423 0.1906553 -0.033743788 0.05849312 0.0101583 -0.08886715 0.23306502 0.109753676
0.02840825 -0.038539503 0.3258473 0.018630683 0.057978615 0.19059648 0.2095068 0.28758425
0.25696492 0.17397776 0.21414195 0.08796676 -0.011972947 0.36207506 -0.050882712 0.09246927
0.26518074 0.122047655 0.04926417 -0.08423124 -0.052054472 0.17912206 0.25067222 0.25738633
-0.042489275 0.36500335 0.10319008 0.16266422 0.3222045 0.1474325 -0.11636793 -0.01805697
0.4668318 0.20133725 0.43277967 0.071266904 0.023882348 0.07205462 0.34581694 0.031220853
0.070431694 -0.033114262 -0.028991416 -0.0323198 0.10988543 -0.13439035 0.16656326 -0.15269847
0.0008429868 0.28279004 0.18108548 0.09318316 0.35654828 0.34584984 0.032062147 0.08557864
-0.01612328 0.03357587 0.24163069 0.061437406 -0.14099674 0.112780295 0.040028434 0.0020929342
0.32115364 0.18775706 0.28140384 0.14734116 0.053006556 0.01961825 0.28783613 0.0033577203
-0.23426403 -0.04626126 0.10557373 0.09643567 0.015316537 0.14254816 -0.063236445 -0.1716338
0.07681348 0.18753994 -0.21307763 -0.035999417 0.24582611 0.20677255 0.07176542 0.09272106
0.07198182 -0.10910751 -0.26093826 0.16011813 0.0873577 0.084949054 0.039732985 -0.009714958
-0.09240752 -0.11682576 0.18127815 -0.01008529 -0.055887293 0.018944426 0.10563708 -0.11417418
0.07174918 -0.14401956 0.015231569 0.0678445 0.20273738 0.055628557 0.22554076 -0.043462094
0.07266351 0.0095888 0.17000763 0.16377115 0.047906604 0.07185064 0.04870386 -0.01927654
0.16732875 0.088254005 0.10950407 -0.021507805 -0.11152419 0.08201408 0.061943933 0.015105661
0.09747341 0.16640921 0.25040412 -0.10768069 -0.08378803 0.015587476 -0.27386606 0.1626913
0.26004592 0.1715446 0.13005577 0.15795724 0.043917235 0.21009961 -0.09092542 0.12938644
0.03446605 0.010766405 -0.18293335 0.034634598 0.17573462 0.13323523 0.26426017 0.103752285
0.060531855 0.1792381 -0.12135576 0.14159408 0.06111944 -0.23881073 -0.17888841 0.00039564
0.21606651 0.12947033 0.040746473 0.1097364 0.11865797 0.17562799 -0.13517395 0.060968313
0.2097962 0.25146163 0.32369214 -0.006748972 0.05489584 0.16032428 -0.082592845 0.06131049
0.46482462 0.11719379 -0.21772942 0.04186089 0.043452017 0.2130102 -0.08208585 0.10958911
0.17792499 -0.017978704 0.22604463 0.032222267 0.002821109 0.18716249 -0.3031302 0.012735517
0.21678412 0.14558348 0.23200187 0.07301818 -0.0031694341 0.07158344 0.38351625 0.019956741
0.045573957 0.18483342 0.0050864224 0.23331617 0.13502997 -0.024049312 0.07198572 0.016717698
0.046034995 0.29256976 0.070098504 -0.017652243 0.23290773 0.26318738 0.10262156 -0.19673558
0.31058863 0.2905112 0.18989602 -0.11153778 -0.20327552 0.08561213 0.31879187 0.10703512
0.10976948 0.24370436 -0.022786317 0.13875635 0.2523262 0.13953179 0.15196534 0.13466743
0.27484623 0.3802633 0.16478138 -0.06431231 0.065514095 0.13942958 0.017442347 0.17486899
-0.22624122 0.14322777 -4.0505736e-05 0.1123061 0.03909125 0.27766234 0.22598684 0.09877447

hidden_layers.2.weight f4 [100, 300]
00000000: ade8 f03c 7485 a93d e827 3ebd 9242 dfbc
00000010: 2720 05be 884e 193d 804a b0bb af76 423c
00000020: f4bd 033d 85a2 adbd c84a 1c3e 877e 6b3d
00000030: ab5a 6c3d 9e2d 9b3d eb37 8d3d 7109 d23d
00000040: 5594 943d 138b 8c3d f9cc 48bb d64a 913d
00000050: 3c61 ddbc 48fd 983d 264d ffbc bf5a 753d
00000060: fd81 d83c a6e8 6e3d ec79 883d eff7 ebbd
00000070: 6ec3 81bc eeb8 ba3d 2a83 133d 7ece b23c
00000080: c5e8 0a3d edd8 d63d 3e8e 7ebc 0cde c0bd
00000090: 576a b53d 0645 a43d 71bd c2bc 33c1 88bd
000000a0: 8210 8e3d c6ec e9bc 5470 a13b 64a8 1d3d
000000b0: 4243 e33c bf0d d8bd ccb7 473d 6ade 9bbd
000000c0: 56f5 a73b c43d efbc c1f7 30bd eded bc3d
000000d0: 93a0 72bd ae33 2c3d bfa1 ed3d 5dea 35bd
000000e0: 2c53 57bd 9179 c0bd 37dc cf3d be59 223d
000000f0: b2a2 ca3c 7483 b73d 68f2 ff3c cd0b 383d
00000100: 2507 313d 3ff5 39bd 7289 073d af08 cd3d
00000110: 7437 4ebe c15f 36bd 36a7 abbd efdb 553d
00000120: a21d a63d fde9 663d 6cae 96bd ce12 91bd
00000130: 936c 96bd d1cb 2b3d 5e3c 753d f6b8 9a3d
00000140: c1aa b93c d0ad cd3d 9836 ee3a c10c 583d
00000150: 07d1 703c 377a 3c3d 0ca6 b5bd be55 3bbd
00000160: 4231 8abd 2ed3 e33d 9660 32ba 0e7a 4abd
00000170: 163d 0e3e d3d2 993d d21d 09be 5d01 bcbd
00000180: f146 1d3d eb21 5c3d 6b02 aa3d 5b0e 373d
00000190: f4eb 0bbe 6041 463d f616 433d 2d4c 5cbb
000001a0: 52d9 adbd 14ce b33c d46c aa3d 2a6c 933d
000001b0: 8c3d 1cbe b92a 36bc ca9b bb3d c709 8abc
000001c0: 7d29 5e3d 84f1 80ba e365 48bd 9d4e a1bd
000001d0: 0dd2 8c3d 9b9d 493d e1c7 9f3d e729 c8bc
000001e0: 3153 4ebd fa80 653d de69 6c3d 02ba c13c
000001f0: 22c4 9fbd f884 9c3d 70df 5cbd 7d5b 7ebc
00000200: 267c e43c 7efb 38be 3b12 333c 5392 973d
00000210: e000 c33c c733 b13d 7499 d6bd 7fc5 0a3e
00000220: 488b c43d 94ae 57bd 27ba 52bd ed91 423c
00000230: 9e6c fd3d e7f8 893d 4957 ce3c 1f89 cb3d
00000240: 68d6 103e 0d26 b33c 5b65 763d 9006 af3c
00000250: e771 b0bd 3a8d 253d caa5 1b3d 3866 813d
00000260: e20d 8ebd f66b fdbc f2cf d23c 20de 8dbd
00000270: 5234 84bc 5dac da3c 8053 323d cd38 513d
00000280: 7b3e 87bd d701 65bd 9ba1 b83c a724 ad3c
00000290: 9220 8d3c 3eaa 40bc c7e7 f1b9 87b9 91ba
000002a0: 165d 913d b259 45bd ef62 cf3c 6ca3 cb3c
000002b0: a481 c43d 94d1 49bc d9c3 74bd 8fb6 853d
000002c0: 35e9 ad3d 6378 48bc 2da7 bd3d 93f0 033c
000002d0: e22e e8bd b677 3ebd 8ae6 723d 4d69 80bc
000002e0: bf06 1e3e 0353 c03d 3ecf 8c3d d095 a1bd
000002f0: c34d 1cbd d87c bd3d ec3d 3e3d 1bf3 8a3d
00000300: 49c6 143d adae 9d3c a8ad 99bc 5053 24be
00000310: a0d8 413d ab7a 4dbd 2317 b03a 6cf7 46bd
00000320: a269 dd3c 469c 24bd 4c40 17bd 2f27 41bd
00000330: 6920 c73b 0cc3 273d 3a89 f73a 4656 b1bd
00000340: 489d 0b3d 9fb6 6b3d dbff 4b3d 5803 e83c
00000350: f62b 6bbd 0e75 5f3d 9c6f ccbb 78f9 30bd
00000360: 30eb 0a3b 3812 b73d 2e55 39bd 2808 923c
00000370: 06f7 4fbc 8cbe aa3d d26f 513d ce4e 82bd
00000380: 8810 2ebd c351 4cbc c568 533e 5dde bbbc
00000390: 7965 38bc 86c9 d63d 842e a93d 94eb 693c
000003a0: 997b 7cbc b488 b83d 2345 013d 20a8 af3c
000003b0: d33f a23d 713f 98bc 0489 5a3d 9091 5d3d
000003c0: e3ba f23a 984a b63c 16ad 903c fd37 64bc
000003d0: 97ea 023d 5b52 f6bd bde6 a83d ec5a c8bd
000003e0: a259 91bd da14 77bc b363 f73b a596 b73d
000003f0: 2e33 84bd 8ff0 4c3c a750 d2bd dcdf f4bb
0.029407823 0.08277407 -0.046424776 -0.027253423 -0.13000546 0.03742841 -0.005379975 0.011869117
0.032163575 -0.08478264 0.15262902 0.057493713 0.057703655 0.0757706 0.06895431 0.10255707
0.072548546 0.06862464 -0.0030639751 0.07094352 -0.027023904 0.074701846 -0.031164717 0.059900995
0.02642917 0.05832734 0.0666388 -0.11521899 -0.015840258 0.09117304 0.03601376 0.021826979
0.033913393 0.10490594 -0.015536843 -0.09417352 0.08858173 0.08020978 -0.023771973 -0.06677475
0.06936742 -0.028555285 0.0049267206 0.038490668 0.027742032 -0.10549497 0.048759267 -0.076107815
0.005125682 -0.029204257 -0.043205027 0.09225068 -0.059235167 0.042041473 0.11603116 -0.04441296
-0.052569553 -0.09398187 0.101494245 0.039636366 0.024735782 0.089606196 0.031243518 0.04493313
0.043219704 -0.0453999 0.033090062 0.10011422 -0.20138341 -0.04452491 -0.08381502 0.0522117
0.08111121 0.056375492 -0.07357487 -0.07083665 -0.07344928 0.04194242 0.059872024 0.0755481
0.02266443 0.10042918 0.0018174229 0.052746538 0.0146982735 0.04601499 -0.088695616 -0.045736067
-0.067476764 0.11124264 -0.00068045536 -0.049432807 0.1389049 0.07510915 -0.13390282 -0.091799475
0.038397733 0.053743284 0.083012424 0.044691425 -0.13664228 0.04840219 0.04762932 -0.003361474
-0.08488716 0.021948852 0.083215386 0.07198365 -0.15257853 -0.011118584 0.09160574 -0.016850365
0.054238785 -0.0009837602 -0.04892529 -0.078763224 0.068760015 0.04922257 0.07801796 -0.024434043
-0.050372306 0.056031205 0.05771815 0.023648266 -0.07801081 0.07642549 -0.053924024 -0.015524742
0.02789123 -0.18064687 0.010929639 0.07400956 0.023804128 0.08652454 -0.104784876 0.13551901
0.09596878 -0.052656725 -0.05144706 0.011875612 0.12374233 0.067369275 0.025188105 0.09938263
0.1414429 0.02186873 0.060155254 0.021365434 -0.08615475 0.040417887 0.037999906 0.06318325
-0.06936242 -0.030935269 0.025733922 -0.069271326 -0.01613823 0.026693517 0.043536663 0.05107956
-0.06603714 -0.055909958 0.022537997 0.021135641 0.017227445 -0.011759339 -0.0004613979 -0.0011117914
0.07097833 -0.048181243 0.02531573 0.024858199 0.095950395 -0.012318034 -0.059757087 0.06528961
0.08491746 -0.012235734 0.09260402 0.008052963 -0.11337067 -0.046500884 0.05930189 -0.015675211
0.15432261 0.09390833 0.06875466 -0.078899026 -0.038160097 0.09252328 0.046445772 0.0678465
0.036321912 0.019248331 -0.018759564 -0.16047406 0.04732573 -0.050165813 0.001343463 -0.048575804
0.027027909 -0.040188096 -0.036926553 -0.04715651 0.0060768616 0.040957496 0.0018885501 -0.086590335
0.034085542 0.057547208 0.04980455 0.028321907 -0.05741497 0.05455499 -0.006238891 -0.043206662
0.0021197312 0.08939022 -0.04524725 0.017826155 -0.012693172 0.08337125 0.05113203 -0.06362687
-0.042496234 -0.012470665 0.20645435 -0.02293318 -0.011254662 0.10487656 0.08260825 0.014277358
-0.015410327 0.09010449 0.031560075 0.021442473 0.0792233 -0.018584939 0.053353325 0.054093897
0.0018518831 0.022252366 0.017660659 -0.013929364 0.031962004 -0.12027427 0.08247135 -0.09782967
-0.07097174 -0.015080655 0.007549727 0.0896428 -0.06455074 0.0125085255 -0.102692895 -0.007472975

hidden_layers.2.bias f4 [100]
00000000: bc60 133e 19d4 503e 7fb0 ac3d 4535 d23d
00000010: b52a 413e cb15 873d 05cc a83d 7d1c 84bc
00000020: 7924 643d bf61 623e 2603 95bc 8d28 853d
00000030: d023 e73d 46b9 03be 5ac2 1f3e 8c52 793e
00000040: 3bae 583d dbef b93d ce41 f43c a2a6 203e
00000050: ed6c a73c c7e3 aa3d cd21 d33d a20d 163e
00000060: 2a19 073e 9e16 5d3d 5937 4d3e cae6 eebd
00000070: cbfe 773e 08a5 d83d e67d 0f3e 7095 22bd
00000080: 0f87 3f3e 452e b23d 6d7c 743d 9212 063d
00000090: d1ac f23d 7cc9 f53b a98a 463e 5d3c 613e
000000a0: 1bce 723d f37d 273b 609a 533d 6b5d 20be
000000b0: 61a5 9c3c 10b0 883d a699 3c3e 911b b53c
000000c0: b563 bb3e 663d 353d 9af2 1a3c 7870 003d
000000d0: 1df1 8e3e ec71 923d ee63 da3d 25fa 803e
000000e0: 16e3 8e3d 3cac 533d 4354 343e 6705 0a3e
000000f0: 249b 593d 96ef 2b3d d0ce b23d 1d32 693e
00000100: 031c f83d 3622 c3bd 4728 2e3e 8653 b13d
00000110: 276f 123e 13e4 fa3d 1e88 c53d d966 733d
00000120: f40e 2abd 7947 5d3e 04de 333e 88f5 4a3e
00000130: 539b 4f3e 0e3f 5f3e 23cf f5bd bd24 fb3c
00000140: 9b96 273d 238c 823e 2407 4f3e ce50 813d
00000150: 3441 243c 5c9b 0a3d 87ba e93d 0327 9e3c
00000160: aa50 aa3d 4246 983d fe8c 403c 8b86 803d
00000170: 5eb0 2e3e 9282 1b3e 7c3d 543b de36 89bb
00000180: c809 ee3d d576 483e 8071 463e 0487 58bd
0.1439237 0.20393409 0.084321015 0.102640666 0.18863948 0.065959536 0.08242039 -0.016126866
0.055698846 0.221076 -0.018189978 0.06501875 0.112861276 -0.12863645 0.15601483 0.24347895
0.052900534 0.09078952 0.029816534 0.15688565 0.020437682 0.08344226 0.10309181 0.14653638
0.13193193 0.053976648 0.20040645 -0.11665113 0.2421829 0.10578352 0.1401287 -0.039693296
0.18703865 0.087002315 0.059688974 0.032732554 0.11849368 0.0075008254 0.19388832 0.21995683
0.05927859 0.002555725 0.051660895 -0.15660636 0.019121828 0.06674206 0.18417987 0.022107871
0.36599508 0.044248007 0.009457255 0.03135726 0.2791833 0.07150635 0.10663591 0.25190845
0.06976907 0.051677927 0.17610268 0.13478623 0.05312647 0.041976534 0.087308526 0.22773023
0.12114718 -0.095280096 0.17007552 0.08658509 0.14300214 0.12250533 0.09645103 0.059424255
-0.041518167 0.21609296 0.17565161 0.19820225 0.20274095 0.21801397 -0.12002399 0.030657167
0.040915113 0.2549754 0.20217568 0.063142404 0.010025311 0.03383957 0.114125304 0.019305712
0.08316167 0.074352756 0.011752365 0.06275662 0.17059466 0.15186527 0.003238528 -0.004187449
0.116229594 0.19576581 0.19379234 -0.052863136

hidden_layers.4.weight f4 [20, 100]
00000000: a990 013e be7a 62bd 6179 9b3c 97e9 063e
00000010: 1069 02be de27 223e 1d69 b73d 231d 70bc
00000020: 1cad 8cbd 2f15 e2bd e1f3 96bd 9596 21bd
00000030: be11 f53d a2b0 42be 42f9 ad3d 917b 0b3e
00000040: 382d e53d dada c3be 5799 003e b3fb a73d
00000050: caf3 34bb 501f 033e d029 c53b d2c7 2fbe
00000060: f488 0f3e 70a4 d4bd 6dae 15be 4b39 ee3d
00000070: 2572 cc3d e43f b3bd 799a bebd 8e2b ed3c
00000080: 4b58 abbd 2117 17bd c642 aa3d 33eb 263d
00000090: 58fd 1a3d ce5f 15bd 1ec6 52bd 4a74 8e3d
000000a0: ce96 d93d 690f fdba 10f6 073e 7acd 6dbd
000000b0: a880 083e 63c4 653d e51a 6dbe c0f8 9c3d
000000c0: af0f b33d 5d71 e5bd b121 c23d ce1c e3bd
000000d0: 277a 3fbc 752e a0bd 0092 4bbe 1e99 563d
000000e0: d49e 01be e267 87bd 9074 cc3c 4288 a9bd
000000f0: 4b21 49bd 9725 343a cb71 0e3e 128d e63d
00000100: 942a 0b3e 07c8 c9bd 1e7d bc3d 6d00 43be
00000110: 6659 24be ea9f 6cbe e856 6bbd 3ee3 85bd
00000120: ebc2 4cbd 6f01 e43d 2f76 90bd 0f6a 0b3e
00000130: 309a 093d e59a bbbd 0ff8 37bd a78b fb3d
00000140: 2c1a 743d d21a 123e 7d86 b03d acb5 07bc
00000150: 4758 01bd 9886 81be c540 7bbc 4672 8aba
00000160: 89af c73d 6c9b aabd c3c6 9ebd 9102 d8bd
00000170: eb3a 033e 96f6 933d 710e efbd db3f 82bd
00000180: 8917 923d ba56 473d 457a 6c3d 4a58 5e3d
00000190: 4d08 b13c 3fc1 28be 311f a33c fa25 aaba
000001a0: b901 c13d ec05 0dbe 3060 c2bd 6e1a aa3d
000001b0: 2d73 1f3d 937e 823d 8857 b63d 6cec 573d
000001c0: f042 bc3c 5d32 20bd 47ed 1f3e 4c91 ce3c
000001d0: 090b 583d 9913 79be 0dcc 09bd f21e 083d
000001e0: 9361 cebc c775 0e3e 7dea fb3d 980b c0bd
000001f0: 01c4 11be 4d9c 663d 96d7 fb3d 567e e13d
00000200: 6a61 d73d 6ee4 b1bd 51ef 5bbe b60a 26bc
00000210: 3185 68be 2700 25be d089 093e 9239 b73c
00000220: 4318 9abc 3751 1c3e 51fc 743c eb78 323d
00000230: 78ae 89bd a7bd 053e 3e00 053d a470 06be
00000240: 118f 83bd cba9 debd 3953 8a3d fe5a 09bd
00000250: 4339 0e3d 2f1f 8fbd 50d6 ef3c e3ec 58be
00000260: ae4e 063d c1e4 ec3d 0381 33be cd3f 3d3d
00000270: 2e3c bcbc f5c5 e43c 417c b5bd 9a1b c7bb
00000280: 0f45 d4bd ec9a e13d ebe4 a53d 4c26 1f3e
00000290: fc2a 9b3b 37f0 e8bd 9331 173e 5599 78bd
000002a0: 1bea 05bc 014a 01be 7463 183e e653 9b3d
000002b0: 369b 7bbd 6e55 163e 45f4 8f3d ca1a 5d3d
000002c0: ef0b 06be e99f 153d 0cde d53d 90c2 0d3d
000002d0: f6df 153c 4ab3 ca3d 899b 5cbd 533a 0d3e
000002e0: 457d 9abb 09fe 7bbe d8d7 153e 8f2b aebc
000002f0: 5f32 113e fe40 25bd f6e6 f7bb 9725 bfbd
00000300: 9990 963d 6aad f23d fb8f b0bc 9f8a 93bd
00000310: 3136 94bd df78 ebbd 800e ea3d d250 213d
00000320: 2ab7 eb3d c976 603c 16eb 1d3e 350d 6ebd
00000330: 2b51 443e b3d8 afbd 60ed adbd e2bd 823d
00000340: 95a7 37be 44e2 0bbe 4ea7 663d 55dc 22be
00000350: a4f1 4bbd dd1c 65be d6bb 823d 031e 1ebc
00000360: 5f73 bbbd 1373 413c 62ee 98bd 4bab 303e
00000370: a14c 323d d3a0 863c 868c 033e a5ac 193e
00000380: e7e0 2d3c 5ce3 0f3e 8a3b c2bc 506f 7d3d
00000390: fc96 85bd 0e7e 64be a4e5 58bd 95ee 0fbd
000003a0: 6270 65bb 7ded 9fbd 9e26 27bd 4718 0e3e
000003b0: cc3d 3dbc 2c4e 263d 6fa8 743d 196a 2dbe
000003c0: 1757 963c a04b e4bd 8f02 313d 67de f3bd
000003d0: 9699 08be 29ba efbd 51f7 7cbd d4b5 9bbb
000003e0: ef04 b03d 6a26 143e 37e4 61bc f0ea 223e
000003f0: 40d2 163e 8eb1 3bbe d390 d2bc db74 803d
0.1265284 -0.055292837 0.018978776 0.13175045 -0.1273539 0.1583552 0.08955596 -0.014655384
-0.068689555 -0.11039197 -0.07370735 -0.039450247 0.11966275 -0.19012693 0.08494808 0.13621356
0.111902654 -0.38252908 0.12558495 0.08202305 -0.002761113 0.12804914 0.0060169473 -0.17166069
0.14017087 -0.103829265 -0.1461732 0.116320215 0.09982709 -0.087524205 -0.09306807 0.028951433
-0.0836645 -0.03688729 0.08313517 0.040751647 0.037839264 -0.03646832 -0.05145847 0.06955774
0.10624467 -0.0019306961 0.13277459 -0.058057286 0.13330328 0.056095492 -0.2315479 0.07664633
0.08743226 -0.11203263 0.094790824 -0.110894784 -0.011686838 -0.07821361 -0.19879913 0.052392118
-0.12658244 -0.06611611 0.024957925 -0.08277942 -0.049104016 0.00068720564 0.13910596 0.11257376
0.13590461 -0.09852605 0.09203552 -0.19043131 -0.16049728 -0.23107877 -0.057455927 -0.06537484
-0.049990576 0.11133086 -0.07053792 0.13614677 0.03359431 -0.09160403 -0.0449143 0.12282496
0.059595272 0.14268044 0.086194016 -0.00828306 -0.03157833 -0.25298 -0.0153352665 -0.0010562621
0.097502775 -0.083304256 -0.077527545 -0.105473645 0.12815444 0.07224767 -0.11672676 -0.06359836
0.07133395 0.048666693 0.057733793 0.054283418 0.021610403 -0.16479968 0.019912334 -0.0012981289
0.09424157 -0.1377179 -0.094910026 0.08305822 0.0389282 0.06371798 0.08903414 0.052715704
0.022981137 -0.03911053 0.15617858 0.025215767 0.0527449 -0.24323882 -0.033641864 0.033232637
-0.025193011 0.13912116 0.123005845 -0.09377211 -0.14234926 0.056301404 0.12296979 0.11010425
0.10516627 -0.08686148 -0.2147801 -0.01013439 -0.22707058 -0.1611334 0.13431478 0.022366319
-0.018810397 0.15265356 0.014952735 0.043572348 -0.067227304 0.13060628 0.032470934 -0.13128906
-0.06423772 -0.10872229 0.06754155 -0.033534043 0.034722578 -0.0698837 0.029276997 -0.21184115
0.03278988 0.11567069 -0.17529683 0.046203423 -0.022977915 0.027926425 -0.0886159 -0.0060762884
-0.103647344 0.11015877 0.08100303 0.15541953 0.0047353487 -0.11373942 0.14765005 -0.060693104
-0.008173491 -0.12625886 0.14881688 0.07584362 -0.061427318 0.14681026 0.070290126 0.053980626
-0.1309049 0.036529455 0.10442743 0.034609377 0.009147635 0.09897478 -0.053859267 0.1379178
-0.0047146403 -0.24608625 0.14633119 -0.021261005 0.14179371 -0.040345185 -0.0075653745 -0.093333416
0.073517986 0.11849482 -0.02155303 -0.07204174 -0.07236899 -0.11497664 0.11428547 0.039383717
0.11509545 0.013700196 0.1542171 -0.058118064 0.19171588 -0.08586254 -0.08492541 0.063838735
-0.17935021 -0.13660532 0.056311898 -0.15904362 -0.049790993 -0.22374292 0.06383483 -0.00965071
-0.09152865 0.011807221 -0.07467343 0.17252843 0.04353011 0.016434109 0.12846574 0.15007265
0.010612703 0.14051574 -0.023710031 0.061873734 -0.065229386 -0.22313711 -0.052953377 -0.03513964
-0.0035009612 -0.07808969 -0.040808313 0.13876449 -0.011550378 0.040601894 0.059730943 -0.16935004
0.018352075 -0.11147237 0.04321533 -0.11907654 -0.13339838 -0.11705429 -0.061759297 -0.0047519
0.08594691 0.14467779 -0.013787321 0.15909934 0.14728642 -0.1832945 -0.025703823 0.062722884

hidden_layers.4.bias f4 [20]
00000000: f299 3d3e ea2a 133d 463c e93d aa15 d53d
00000010: 1b7f e33c 769d b83d 8b5b 1d3e 36a2 b33d
00000020: 64b8 893e e125 843d ad4e a5bd 0401 763d
00000030: 6c97 d13c 3783 ce3d b746 ecbd 32ec 88bd
00000040: 2b84 403e 8cc8 443e c9f7 623e 2c32 ba3d
0.18515757 0.035929598 0.11388449 0.10404523 0.02777057 0.09014408 0.15366952 0.08771174
0.2689849 0.06452537 -0.08071647 0.060059562 0.025584899 0.10083621 -0.11536925 -0.06685676
0.18800418 0.19217128 0.22164835 0.09091601

hidden_layers.7.weight f4 [100, 20]
00000000: cc7f f4bb 05fa 36be c0d7 bebe 8a42 9abd
00000010: 59bb 143e 3339 cdbc 114a a1bd 52ae 9bbd
00000020: e192 8c3e a2ff e5bc 0547 5e3c e60c 6cbd
00000030: 00d5 11be 828c 85bd cb06 30bd 011c 853d
00000040: d4e9 893d 8e68 013e 84f0 65bd 3cba 983e
00000050: c1a1 b9bd 94e9 a6be 66ee b7bd 9b0e b3bd
00000060: d91f f83d 1d04 20be 8881 a8be 527f bdbd
00000070: 1934 99bd 8c63 bc3d f91b 34be 56a3 3f3e
00000080: 6c71 abbc b586 08be fcfa 413d 3d96 803d
00000090: aa18 583e 572f f1bd 4f95 d03d 4a6b 413e
000000a0: d401 87bc 1918 ba3d 2def 7f3d 3310 f9bd
000000b0: 53f9 193e dd3f 15be 796d 58bd e945 913d
000000c0: d85e 103e 28bc 09bc 9b2a 3c3c 27bf d8be
000000d0: 5ca8 32be 9b60 c6bd f219 ff3d 0be8 09be
000000e0: 5455 763e f354 04bd fa99 863e 6456 3abd
000000f0: b727 823e 74b7 5d3d 1ed1 babe ade2 4a3e
00000100: f8b3 f93d 447b c73d e235 2bbd b872 febd
00000110: cd96 8cbb d157 66bd 556d e73d 9375 9b3d
00000120: efc5 3f3e 76a0 3cbe 0367 0f3e e5e0 0cbe
00000130: 6838 82be 2d9c 963d 6654 21bf 97ee 4d3c
00000140: 0e24 c3bc e9d5 19bd 22fa 103e 3820 b7bd
00000150: 8ffe 923b e35b b4bd db90 603d a869 0abe
00000160: 499f 6d3e dede 89be 0e6d 8cbe 2164 14be
00000170: 9a65 49be 925b 1d3e a9ff dcbd 31fe 39be
00000180: 5918 aa3c 5d25 4c3d c55b 8b3e 07e5 bdbd
00000190: 0de4 353e fa8c 1d3d 8ff2 aa3e 2ba9 733e
000001a0: c0bf 193e 6fd4 40be d2c3 63be 80b1 e8bc
000001b0: 60ef 483d 6532 febd 16ef f43d 72f9 5abe
000001c0: edc4 00be 41e2 4f3e 2200 02be 5ee7 b2bc
000001d0: fedd 863d 3a68 363d d732 cbbd 9f3a 68be
000001e0: d645 453e 424f 133d 5c7d 2e3e 9b9a 39bd
000001f0: fd11 453e 3c05 143e e0f2 aebd e4ed 41be
00000200: f20d fa3d b945 41be 1714 81bd 3b76 2dbc
00000210: 3e52 d13d b306 3ebe ae45 473e f53b b23d
00000220: ceae 6bbe e0d2 183e 8096 793b e33b 193c
00000230: 85fc 4c3e f8af 80be 53c6 203c c3d8 6c3e
00000240: 2344 f93d 5f76 b0bd 888e a0be 1b7c 8ebe
00000250: 232f 14be 0bd3 2abe 1390 2c3e 4518 b13d
00000260: b528 963d 8e9d 79be 3fa3 063e 774d 9fbb
00000270: 27ef 0abe dcaa fd3d 7def b43a 0cc1 553e
00000280: ca94 c5bc 0ca4 b13d 112b 00bd 6038 bf3e
00000290: 7457 a0be b739 98be a73e 87bc 87bc 883e
000002a0: 2721 763e 4bb8 d23b f329 00be 6667 f8bd
000002b0: ad5c c9bd ae59 2a3e cfaf e8bc 5588 063e
000002c0: 6c39 d3bc 49ca f6bd 8cb9 2fbe 3702 2fbc
000002d0: 5257 39bc d15a e2bd 4d00 dc3d c8d3 623d
000002e0: 730b 1d3e 6f1a 883e 880f 0f3b c86b c83c
000002f0: a936 733d 5e79 a53d 2a90 94bc fdf5 47be
00000300: e69e 0dbd 069a 303d 4ffc 393c e554 00be
00000310: 7219 363b c89a 86bd 8f0d 823e 54bf 123e
00000320: efa6 34be f03b e73d 1fa8 11bd c8eb dfbc
00000330: ea92 993e 1961 86bd 44c1 8abe 23a4 2cbe
00000340: 6065 b73d 0a58 d9bd 57bc 0abe c263 89be
00000350: 4fe0 ca3e 28a8 83bd 09b3 84bb c045 51be
00000360: b860 9c3c 7d3e 213b c04b 983e 9d0a 8fbe
00000370: a1eb 1bbd 2b43 9a3e 2626 163d dc82 50be
00000380: 012e 4a3e 6193 0f3e 3c08 11be f760 1bbf
00000390: 77fc 4fbe 3e5c 04be 2d19 b8bd 97b8 d7bc
000003a0: 54b1 ffbd 722e 7a3d bbf7 1a3e 8c86 00be
000003b0: 369e 2b3d 7817 173e 16c9 40bd 3918 d03d
000003c0: 41f9 f83d 39db f8bd b2f4 afbe 16bb 033e
000003d0: d82a 5abb 884b 5e3e cea3 2bbe e9ba 35bd
000003e0: 92c5 383e e50a 8a3e 528c 983d 1a30 4b3e
000003f0: 6004 bdbd 82e5 c53d 70ec 32be 85cb 5c3d
-0.0074615236 -0.17868812 -0.3727398 -0.075322226 0.14524592 -0.025051689 -0.07875455 -0.07601608
0.2745581 -0.028075997 0.013566737 -0.05762949 -0.1424141 -0.0652094 -0.04297523 0.06499482
0.06734052 0.1263754 -0.056137577 0.29829586 -0.09064055 -0.3260008 -0.08981018 -0.0874302
0.121154495 -0.15626569 -0.32911325 -0.092528 -0.0748064 0.091986746 -0.17588796 0.18714651
-0.020928107 -0.13332637 0.047358498 0.06278656 0.21103159 -0.117766075 0.10184728 0.18888584
-0.016480364 0.090866275 0.062483955 -0.12161293 0.15036516 -0.14575143 -0.052838776 0.070934124
0.1409868 -0.008406676 0.011484767 -0.42333338 -0.17447037 -0.09686395 0.124561206 -0.13467424
0.24055988 -0.032307576 0.2628935 -0.045492545 0.25420925 0.054130033 -0.3648767 0.19813032
0.121925294 0.09740308 -0.041799434 -0.124242246 -0.004290438 -0.056236092 0.1130015 0.07590785
0.1872785 -0.18420586 0.1400414 -0.13757665 -0.2543366 0.07354007 -0.63019407 0.012569091
-0.023820903 -0.037557516 0.14157918 -0.08941692 0.004485912 -0.088065885 0.054825645 -0.13516867
0.23205294 -0.26927847 -0.27426952 -0.14491321 -0.19667664 0.15366963 -0.10790951 -0.18163373
0.020763563 0.04984032 0.27218452 -0.09272199 0.17762776 0.038464524 0.33388183 0.23795001
0.15014553 -0.18831037 -0.22242668 -0.028404951 0.04905641 -0.12411956 0.119596645 -0.21384218
-0.12575121 0.20301153 -0.12695363 -0.02183884 0.065853104 0.044532992 -0.09921806 -0.22678612
0.19264922 0.035964258 0.17040008 -0.04531346 0.19245143 0.14455122 -0.085424185 -0.18938404
0.12209691 -0.18874253 -0.0630266 -0.01058727 0.102207646 -0.18557243 0.19460174 0.08702842
-0.23015901 0.14924192 0.003808409 0.009352657 0.20018204 -0.25134254 0.009812909 0.23129563
0.12171199 -0.086163275 -0.31358743 -0.2782906 -0.14471106 -0.16682069 0.16851835 0.08647207
0.07331983 -0.24376509 0.13148211 -0.0048615295 -0.13567792 0.123861045 0.0013804283 0.20874423
-0.0241188 0.086738676 -0.03129107 0.37347698 -0.3131672 -0.29731533 -0.016509367 0.26706335
0.24036084 0.006430661 -0.12516002 -0.12129097 -0.098321296 0.16635773 -0.028404145 0.13137944
-0.025784217 -0.120503016 -0.17160624 -0.01068168 -0.011312323 -0.11052478 0.10742245 0.05537775
0.15336399 0.26582667 0.0021829326 0.024465457 0.0593783 0.080797896 -0.018135149 -0.19527431
-0.034575365 0.04311564 0.011351659 -0.12532385 0.0027786163 -0.06572491 0.2540097 0.14330798
-0.17641805 0.11290729 -0.035560723 -0.027334109 0.299949 -0.06561489 -0.27100575 -0.16859488
0.089548826 -0.10612495 -0.13548408 -0.26833922 0.3962426 -0.06428558 -0.004049663 -0.20436764
0.019089088 0.0024603896 0.29745293 -0.27937785 -0.03806651 0.3012937 0.036657475 -0.20362419
0.19744112 0.14021064 -0.14163297 -0.6069483 -0.20311151 -0.12925813 -0.08989177 -0.026333136
-0.124849945 0.06107945 0.15133564 -0.12551326 0.04189893 0.14755046 -0.04706677 0.1016087
0.121569164 -0.121511884 -0.34366375 0.12864336 -0.0033289697 0.217085 -0.16761705 -0.044367705
0.18044117 0.26961437 0.07448639 0.19842568 -0.0922935 0.09662916 -0.17473006 0.05390503

hidden_layers.7.bias f4 [100]
00000000: f67a 3a3e 4956 ef3e abc8 0b3f 4f6c c53e
00000010: b1a6 0f3f 1e48 14be 143b b639 69b9 f03e
00000020: f5fa a8be f6a3 0abf 9562 32be b5cd 803e
00000030: e450 b53e d3b9 233f b4df 4cbe c15e 663d
00000040: 4cbf fd3e 53a6 ce3e 027d 033f d564 a2bd
00000050: 213d e43d df9f 343e 512e 1e3e 0895 ad3e
00000060: 2eec 1bbe 2cf7 d53b 5a1b a93e 19c1 42be
00000070: 8471 f93e 8394 f73e 9a95 973e 980c d83e
00000080: 589e 5a3e 243f f1bc aa17 5cbe 2a98 3ebe
00000090: f51f ca3e dacc a73c 756d a63e b6fe 59be
000000a0: 950f b3be fd46 91bd e348 acbd 83c5 66be
000000b0: 7ab0 8a3e 1e01 8e3e 21b7 5a3e bec4 14be
000000c0: fe32 97be 41d9 e23e 7565 253f 1da6 063f
000000d0: 7caa bbbd 609e 893d f750 253f 560d f13e
000000e0: dc66 dd3e 73b8 b3bd 3538 d13e d3b5 ffbc
000000f0: ec23 e83e 173b 993e 24b2 a73e c5f9 893e
00000100: 0539 acbc 34c2 b53c 830c 153f 6e49 aebe
00000110: cdbc 4dbe 31f5 6abe 1bea 91bd 2ff1 dabe
00000120: 1880 da3e bf43 00bc 1961 933d b770 063f
00000130: fae7 2a3f 332c ed3d f37c fd3a 3071 5abd
00000140: 59c6 033f d019 77be fe2e e53e 0a3c 91be
00000150: 35d7 c8be 3fb0 103e 49a3 263f eedd 3ebd
00000160: 2062 0fbe 75a1 19bf 5562 09bd 70a4 343e
00000170: 6240 e1be 0db9 023f b011 cb3e 5697 11bc
00000180: e857 d0bd 6789 67bd 35c2 e7bd 3cbe 83be
0.18210968 0.46745518 0.5460307 0.38559195 0.56113726 -0.14480636 0.00034757762 0.47016457
-0.33003965 -0.54156435 -0.17420419 0.25156942 0.35413277 0.6395542 -0.20007211 0.056242708
0.4956001 0.4036127 0.5136262 -0.079293884 0.11144472 0.17639111 0.15447356 0.33902764
-0.15226814 0.0065297093 0.3302868 -0.19018973 0.48719418 0.48355493 0.29606324 0.42197108
0.21349466 -0.029449053 -0.21493402 -0.18612733 0.39477506 0.020483423 0.32505384 -0.21288571
-0.34972826 -0.07093618 -0.084123395 -0.22536282 0.27087766 0.27735227 0.2135892 -0.14528176
-0.2953109 0.44306377 0.64607936 0.5259722 -0.09163377 0.06719661 0.6457667 0.47080487
0.43242538 -0.08775415 0.40863195 -0.03121463 0.45339906 0.29927894 0.32753098 0.26948372
-0.021023283 0.02218733 0.58222216 -0.34040397 -0.20091553 -0.22945096 -0.0712473 -0.42762133
0.42675853 -0.007828652 0.07196254 0.5251574 0.6676022 0.11580696 0.0019339606 -0.0533306
0.5147453 -0.2413094 0.44762415 -0.2836612 -0.3922669 0.14129733 0.65092903 -0.046598367
-0.14002275 -0.6001199 -0.033541042 0.17640853 -0.43994433 0.51063615 0.39661932 -0.008886179
-0.10173017 -0.05652752 -0.11316339 -0.25731075

hidden_layers.9.weight f4 [300, 100]
00000000: 24a2 20bc b6d7 013e 0988 53bd 3e00 be3d
00000010: 0e79 08be d890 6f3d 517f 813d 630d 923d
00000020: a844 5fbe 7180 84bb e485 973d 3e77 d93d
00000030: 05b3 02be d6dc 903a 9df8 6f3e fbbd ca3d
00000040: 1bc3 bd3d 1b21 033d fe94 e3bd 8d5f 473e
00000050: f34b 8a3d 3d9e e9bd 4ecc 90bd ecd9 513d
00000060: 9b17 04be 942d fdbd f73a 5dbe 62ae adbd
00000070: e515 a0bd b48d 61bc 1c66 963c 123d 47bd
00000080: 5cbd 4bbd 7e82 1ebd d9bf 8abd f477 873e
00000090: 6389 313c d202 d53d 148a 79bd 2cee 763d
000000a0: 41db 30bc 4d6a c23d 011e ca3d f0fb 4c3d
000000b0: afbd 47bd ed15 62bc 3a40 debd a331 27bd
000000c0: a66d 0f3d ee6a 34be f457 c0be 380f 003e
000000d0: b8bc 953d 08ab 96bb b038 0bbe e60d a6bd
000000e0: 6fca ecbc d3b6 adbd a182 f2bb 4d94 943d
000000f0: 6712 35be d463 783d a752 eebc 6d4d 7fbd
00000100: 446d 63bd b506 f7bd 9baf 8e3d d46c ce3c
00000110: d628 d13d 9dbc 493d f174 8f3d 74fd b33d
00000120: 0816 293e 6fee 6c3c 9600 1ebd eeaf 873d
00000130: 419c 7bbe 3afd 523d 2f7c 8b3d 66d2 d3bd
00000140: e637 55bd a4b9 bebd f292 6fbd 5625 583e
00000150: 8c54 19bd 7d14 a73d 9076 243d 486a 853e
00000160: f5f5 38bc aed2 d8bd 2f61 6dbd a6e2 7f3d
00000170: 6610 a83d f592 6dbd b937 4a3e 5044 f23c
00000180: c9fb 2dbe 53ed 873d 87ec ec3c ec7a 16be
00000190: 283f be3b a010 d23b 55c7 df3c c670 5cbe
000001a0: 90ef 83bd d701 cfba b812 2fbe ca6c 61bd
000001b0: e03a 92bc b45e 313d 42da a13c c8b4 a43d
000001c0: 1217 3f3c 0374 94bd 1f51 323d 9b39 60bd
000001d0: 0fb0 853d 06cf 2bbe f1e5 35be c60a 803d
000001e0: cba6 c93d ac05 383c d088 bbbe 955e 7abd
000001f0: 2ba9 7f3d bac6 f3bc 8b73 d2bd 52d8 973c
00000200: c250 ee3b 6527 b6bd 7286 7dbd 8286 68bd
00000210: 4ebc f83c c29f 293d 048a 583d 1378 213e
00000220: 1e53 9dbd 0ab6 f03d f846 aabd 0a83 8fbd
00000230: 4e17 d93c 79bf be3c 816a a83d 27b2 e93d
00000240: ce80 c83d e962 4bbc 5baf 183d 0162 c5bb
00000250: 1d83 923d 4aa5 f43d e2b9 49be d355 213e
00000260: fc8f 28be a211 c6bd 0910 b1bd b818 72bd
00000270: e6e0 5b3e c79f ec3c 3789 bd3d 7e79 f9bb
00000280: 47e2 97bd 4465 a7bc 5392 dabd f669 2fbc
00000290: 5842 d53d 8439 34be 6457 9f3d 0c48 033d
000002a0: c3d0 f4bd 7abf 213c 1c81 82bd b7fd c6bd
000002b0: f629 013e 51a2 2abe 107b c33d 2e85 b1bd
000002c0: 99cb 7bbd 7c4d efbc 14ed 733c 8fd9 ee3c
000002d0: e4b8 05bd 8298 27be b964 163e 4fbb ce3d
000002e0: f1c5 ca3d 923a 99bc 5a5b 2fbe 1e5d 273e
000002f0: 3cb6 b439 07ed a53d f77e 41bd 23ef c8bc
00000300: 17c0 203d 1f74 fdbd 7c22 b3bd a347 d93c
00000310: a169 d73d 8c48 f73d 7c2a 20bd daea 80be
00000320: a9e7 86bd 3704 1d3c cf94 8fbd fbc1 223d
00000330: a81c a6bd b948 3fbc 1ad9 a8bd c540 a7bd
00000340: 6446 9b3d b37a 35bd 0ac8 043e ff12 02be
00000350: 3f83 0f3e d1d7 7f3d 71c0 8d3d a727 a2bd
00000360: a57b d83d e0cc ce3b 4bc7 253d b8e8 7c3c
00000370: 0726 42bd 7e31 b13d f09d 493c 65af 873d
00000380: ed75 4f3d 63c9 18be 4dca b83a a9e8 73bd
00000390: 99c3 b53d 5b51 b4bd cd8c b93c 2374 913d
000003a0: b718 963c 5cbb dbbb 70a8 9b3d 6bce e43d
000003b0: 51e5 cd3d e420 f5bc 66ef ed3d e0ca 4c3d
000003c0: 8920 a13c 5f9f 963b 9361 a8bc c2d6 063e
000003d0: e7a0 613d 0dd5 9abd 4561 ee3d 5047 8cbd
000003e0: 8145 9c3d 77d1 3d3c f5ef 30be 1e0e 24be
000003f0: f76a 9ebc 8737 6abd 2f82 0e3d 26a1 843d
-0.009804282 0.12679943 -0.051643405 0.0927739 -0.13327429 0.058487743 0.06323112 0.071314596
-0.21803534 -0.0040436317 0.073985845 0.10618447 -0.12763603 0.0011052142 0.23434682 0.09899517
0.09265729 0.032013994 -0.111124024 0.19470043 0.067527674 -0.11407135 -0.07070218 0.051233217
-0.1289963 -0.12362209 -0.21604525 -0.084805265 -0.07816676 -0.013766695 0.018359236 -0.048642226
-0.049741134 -0.038698666 -0.06774873 0.26458704 0.010835978 0.104009286 -0.060922697 0.060285732
-0.010794462 0.094929315 0.09869004 0.050044954 -0.04876488 -0.013799173 -0.10852094 -0.04081882
0.03501668 -0.17618915 -0.37567103 0.12505805 0.07311386 -0.004598025 -0.13595843 -0.0810812
-0.028905122 -0.084821366 -0.007400826 0.07254849 -0.17682801 0.06064208 -0.029092146 -0.0623297
-0.055524126 -0.12061826 0.06967088 0.025198378 0.10212867 0.04925214 0.07004727 0.08788577
0.1651231 0.014461144 -0.038574778 0.06625353 -0.24571325 0.051511027 0.068107955 -0.10342865
-0.052055262 -0.09312752 -0.058489747 0.21107993 -0.037434146 0.08158205 0.040152133 0.2605765
-0.0112891095 -0.10587059 -0.05795401 0.06247201 0.08206253 -0.058001477 0.19747819 0.02957359
-0.1699058 0.06637063 0.028921379 -0.14695328 0.0058058687 0.0064106733 0.027316729 -0.21527395
-0.06442177 -0.0015793395 -0.17096984 -0.05503539 -0.01785034 0.043303207 0.019757394 0.08042294
0.011663215 -0.0724869 0.043534394 -0.054742437 0.06527721 -0.16778192 -0.17763497 0.06252055
0.09846266 0.011231821 -0.36627817 -0.061125357 0.06241719 -0.029757846 -0.10275944 0.018535767
0.0072728107 -0.08894233 -0.061895795 -0.0567689 0.030363228 0.041412123 0.052865997 0.15768461
-0.07681869 0.11753471 -0.083143175 -0.070074156 0.02650037 0.02328466 0.08223439 0.11410933
0.097901925 -0.012413719 0.037276607 -0.006023646 0.07153914 0.11945589 -0.19699815 0.15755396
-0.16461176 -0.09671332 -0.086456366 -0.059105605 0.2147251 0.028884782 0.09254687 -0.00761336
-0.07416206 -0.02043403 -0.106724404 -0.010706415 0.10413045 -0.17600065 0.0778034 0.03205113
-0.11953881 0.009872312 -0.06372282 -0.09716361 0.12613663 -0.16663481 0.09544957 -0.0866798
-0.061473463 -0.029211752 0.014888067 0.029156474 -0.03264703 -0.16366771 0.1468686 0.1009432
0.099010356 -0.018704686 -0.17124692 0.16344115 0.0003446805 0.0810185 -0.047240224 -0.024528092
0.03924569 -0.12375664 -0.08746812 0.026523417 0.10518194 0.12074384 -0.039103016 -0.25179178
-0.065871544 0.009583524 -0.07010805 0.039735775 -0.081109345 -0.011675053 -0.08244534 -0.08166651
0.07581785 -0.04430647 0.12966934 -0.12702559 0.1401491 0.062461678 0.06921471 -0.07917719
0.10570458 0.006311044 0.040473264 0.015436344 -0.047399547 0.08652018 0.012305722 0.06625251
0.050649572 -0.14920573 0.0014098376 -0.059548054 0.08875198 -0.0880458 0.022650147 0.071022294
0.018322332 -0.0067056846 0.07600486 0.111721836 0.10053504 -0.02992291 0.11617927 0.049998164
0.019668834 0.0045966352 -0.02055434 0.13167861 0.05508509 -0.075601675 0.116396464 -0.06849539
0.07630444 0.011585585 -0.17279036 -0.1602101 -0.019338114 -0.05718186 0.03479212 0.06476049

hidden_layers.9.bias f4 [300]
00000000: 361a 11be 08d3 76bd c2ad 483d 17d3 6a3e
00000010: f8df 95bd ae11 103d 20b4 03be 5e80 1d3d
00000020: 5b52 553e 126c 503e 2f63 7f3e f1a3 a33d
00000030: ea0f 9dbd a71b c13d bcb0 7dbe 807e 27bc
00000040: 5eb3 c3bd d687 cbbd e6ca d23d 33c3 cfbd
00000050: 73d3 6f3e 0671 b13d f7ed cc3d fd4e 033e
00000060: 9a44 19be cf29 913e be03 8cbe 66a7 183e
00000070: 44b7 913e e0f5 c4bd 3ff4 82bd 2f47 093e
00000080: ae5e 7b3e c13e 183d 5460 873e 5f0a b93c
00000090: 742f 403e 1427 093e 40e4 17bd 425f 243e
000000a0: 166f 883e 3a2d 403e 0be1 ba3c 13e7 453d
000000b0: b227 a73d feb6 273e 9526 0fbe 064d 1f3e
000000c0: cdbc 863e c5e5 88bd 5e51 383d e125 5cbd
000000d0: eb07 e6bb 5fd7 89bd 047d 4f3e ac7c 8fbe
000000e0: 3092 a93e 6991 08be 705a f7bd d4aa c33d
000000f0: cca0 323e f111 103d 9617 013d d206 a2bd
00000100: 477e bf3e 0390 aabd 4c51 883e aec8 e1bd
00000110: a3b3 113e b4df 123c 7390 583c cf24 c7bd
00000120: efbc 243e b4c0 953d 9046 633d a497 783d
00000130: d1bd db3c 96ee 493e 4636 91bd b3a2 18bd
00000140: 3425 af3d 45ac dbbd c8c9 1f3e ff78 613e
00000150: 2bd5 48bd cec3 77bb 9060 113e 06ea 9c3e
00000160: 3f89 943e dee5 1a3e 343d eabd 4305 69bd
00000170: d20d 613e e975 da3c 21e1 16be e2c6 f13a
00000180: 081a 1dbe d64c cdbd 1d14 483d 483c 0c3c
00000190: 70da d3bd d82c 3e3e ef5f 4f3e 7ccf 4b3d
000001a0: 11b2 6cbe c372 b0bd 8fcf 54bd 3e66 9abd
000001b0: b7a1 713e 6d03 36be b4de d9bd d74e 08bd
000001c0: 1dbd b33d c584 263d d317 193e f786 ccbb
000001d0: 0602 093e 70c2 d9bc 8790 00be 6725 b33e
000001e0: cb75 413e e8aa 943e f4db 6ebe 8687 3c3e
000001f0: c61d 93bd 8f15 3c3c f0c2 343d 6c28 4d3e
00000200: 0d0b d13d 4125 363e d167 3cbe 7f8d 833e
00000210: 87d4 cfbd b604 863e 34fe ef3d 7a9c a43d
00000220: 6171 0c3e 7c30 a0bc a6a9 94be de63 563d
00000230: bdf1 073d 116b 15bd cd5c 7c3d 55d3 053e
00000240: f6ff 273d 0680 493e 3765 303c fa03 853c
00000250: 3250 b63c 2fd9 633d 7c89 65bd 0a6c 943d
00000260: a88d f53d fbf8 3e3d 78f8 1b3e 30c3 7b3e
00000270: 117d 31bd 4e15 043e 66d8 273d f79b 89bd
00000280: 510b 3c3e c3ec 713d 5918 163d 45f4 773e
00000290: 2d26 e6bd 8bfd 033e 009e 7a3e 8df5 c9bc
000002a0: dd05 1e3d fc05 873e 517e d63c 5ef2 d9bc
000002b0: 3427 b0bd a2e6 da3d ca00 de3d 3450 6cbe
000002c0: e4c2 58bd c385 0bbe 83b0 043d f827 6f3e
000002d0: 0fa0 1cbe f147 f3bc 9738 e53c 7e46 da3c
000002e0: e3f4 f83b f75a 08bd ea6f 13be 0188 a23e
000002f0: 9df6 953e 54a5 063e 4e53 b53e 162c 4f3e
00000300: cc2a 223e 4e6c b8bd 4bf4 bf3d bc35 0d3d
00000310: 7694 27be eb2a d03d 1303 093d b081 d3bd
00000320: 3554 03be d485 14be d3f7 cf3d e54c 773d
00000330: 538f 823e 9bda 163e 8725 163d 324d 683e
00000340: e6e5 153e f35d 893e b769 b7bc c621 aebc
00000350: 89e0 96be cc58 74bd 8a97 4b3c be4d 173e
00000360: 81ec e43d 086f bd3d dadf a43e 0f19 73be
00000370: c05e a53c 995f 4f3e aab2 253d 4d7d 8b3e
00000380: 31ad 4b3e 1686 0f3c 6219 533e a8eb 393e
00000390: 486d 823e cbb2 1bbe 22a4 663c 86b6 633e
000003a0: f92c e43d 0fbd 033e eb5f f7bc 9d44 b23e
000003b0: 96b1 5e3d c092 04be 7786 32be 278c 9a3e
000003c0: 3d99 8b3e 1899 97be f5e3 b2ba 9b0d 7bbe
000003d0: bdc0 603e d00e d7bd 1c8b 2a3e dd1a 2dbe
000003e0: d331 e63c 7814 793d c3aa 3d3e 204d 5f3e
000003f0: 124d 91be 29a1 a3bd fff3 483e bb6d 6cbd
-0.14170155 -0.06025985 0.048993833 0.22932087 -0.07318109 0.03517311 -0.12861681 0.0384525
0.20832197 0.20353726 0.2494018 0.07990254 -0.07669051 0.094291024 -0.2477445 -0.010223031
-0.09555696 -0.09938018 0.10292606 -0.10144653 0.23420505 0.08664136 0.10006326 0.128231
-0.14967576 0.2835221 -0.27346605 0.14907607 0.28460133 -0.096172094 -0.063942425 0.1340606
0.24547836 0.03716922 0.2644068 0.022587953 0.18768102 0.13393813 -0.03708291 0.16051963
0.26647252 0.18767253 0.022812387 0.048316073 0.08161868 0.163784 -0.13979562 0.15556726
0.2631592 -0.0668445 0.044999473 -0.05374706 -0.007019987 -0.06730532 0.20262533 -0.28024805
0.33119345 -0.1333672 -0.120777965 0.09554067 0.17444152 0.03517336 0.031516634 -0.07911457
0.3740103 -0.08328249 0.26624525 -0.11024605 0.14228682 0.008964468 0.013218033 -0.097238176
0.16087697 0.07312146 0.055487216 0.06069149 0.02682391 0.1971992 -0.0709043 -0.037264537
0.08552018 -0.10726217 0.15604317 0.22018813 -0.049031418 -0.0037805918 0.14196992 0.30647296
0.2901096 0.1512675 -0.11437455 -0.056889784 0.21977928 0.026667552 -0.14734317 0.0018446113
-0.15341961 -0.10024421 0.048847307 0.008559294 -0.10344398 0.18571794 0.2025144 0.04975842
-0.23114802 -0.08615639 -0.051955756 -0.075390324 0.23596846 -0.17774744 -0.106381804 -0.033278313
0.08776305 0.040653963 0.14950494 -0.006241675 0.13379678 -0.026581973 -0.12555133 0.34989473
0.1889259 0.2903664 -0.23326093 0.18411073 -0.07183413 0.011479749 0.04413122 0.20034951
0.10207186 0.17787649 -0.18398978 0.2569389 -0.10147958 0.2617547 0.11718407 0.08037658
0.13715126 -0.01955437 -0.2903568 0.052341335 0.033189524 -0.03647906 0.06161194 0.13068898
0.041015588 0.19677743 0.010766319 0.016237248 0.022255037 0.055627044 -0.05603932 0.07247169
0.119899094 0.046624165 0.15231502 0.24586177 -0.043332163 0.12898752 0.040977858 -0.06719201
0.18363692 0.059063684 0.036644313 0.24214275 -0.1123775 0.12889688 0.24474335 -0.02465322
0.03857981 0.26371753 0.02618328 -0.026604827 -0.086012274 0.10688521 0.10839994 -0.2307747
-0.052920237 -0.13625245 0.032394897 0.2335509 -0.15295433 -0.02969739 0.027981086 0.026644941
0.007597552 -0.033289876 -0.1439816 0.31744388 0.29289714 0.13149005 0.3541512 0.20231661
0.15836638 -0.090050325 0.09372767 0.034475073 -0.16365227 0.10164436 0.033450197 -0.1032747
-0.12825091 -0.14504176 0.101546906 0.060376067 0.25499973 0.14731829 0.036656883 0.22685698
0.1463848 0.2682949 -0.022389276 -0.021256339 -0.29468182 -0.059654996 0.012426266 0.1477575
0.11177922 0.09249693 0.32202035 -0.23740028 0.020186782 0.20251311 0.04045359 0.27244034
0.19890286 0.008759996 0.20615152 0.18156302 0.25474 -0.15204923 0.014077218 0.22237596
0.1114139 0.12865089 -0.030197104 0.34817973 0.054368578 -0.12946606 -0.17434107 0.30185053
0.2726535 -0.2960899 -0.0013648259 -0.24516909 0.21948524 -0.10500872 0.16654629 -0.16904779
0.02809993 0.060810536 0.18522172 0.21806765 -0.28379112 -0.07989723 0.19624327 -0.057721835
