resources/pytorch_models/autoencoder_distances_volume_centroids_129x9x12.pt (torch, 522689 bytes, 12 tensors)

hidden_layers.0.weight f4 [300, 108]
0	0x3c401a61	0.011725039
1	0xbdb0f88a	-0.08641155
2	0x3c2ed96c	0.010671955
3	0xbc077623	-0.008267912
4	0xbdf0782b	-0.1174167
5	0x3dea3cb0	0.114373565
6	0x3d29a4bb	0.041416865
7	0x3d9bb055	0.07601992
8	0xbb0a8ed6	-0.0021142266
9	0x3d9be4d2	0.076120034
10	0xbd11664b	-0.035497945
11	0xbc4780ee	-0.012176735
12	0x3d660f43	0.0561669
13	0xbd543625	-0.05180945
14	0xbc82dcea	-0.01597448
15	0x3cf886ae	0.030337658
16	0xbd2f054d	-0.042729665
17	0x3de0bea8	0.10973865
18	0xbd2249b4	-0.03962107
19	0xbbb872f7	-0.0056289393
20	0x3dfadfdb	0.12249728
21	0x3bdb6f72	0.006696635
22	0xbe35af6a	-0.17742696
23	0xbddbc9d2	-0.107318535
24	0x3cc7b76a	0.02437945
25	0xbd920402	-0.07129671
26	0x3be697f6	0.007037158
27	0xbd567931	-0.05236167
28	0x3d1f5419	0.03889856
29	0x3e07349a	0.1320366
30	0xbd685561	-0.05672205
31	0x3d5b326a	0.053514875
32	0x3d72bbcf	0.05926114
33	0x3c109a6f	0.008825882
34	0xbe3ec9b9	-0.18631639
35	0xbd45fa16	-0.048334204
36	0xbc96039f	-0.018312274
37	0x3d1b9311	0.03798205
38	0xbdbd38c7	-0.09239345
39	0x3d9ed2c9	0.07755048
40	0x3d1b11d2	0.03785879
41	0x3e5653ac	0.20930356
42	0xbdcf1017	-0.10110491
43	0xbca5db31	-0.02024612
44	0x3d8b9e7b	0.06817337
45	0x3d083f1c	0.03326331
46	0xbdfba43d	-0.12287185
47	0xbda6667d	-0.08125017
48	0x3dc81b33	0.09770813
49	0x3c456dcd	0.012050104
50	0x3dc8cc69	0.09804613
51	0xbd9fd748	-0.078047335
52	0xbdd0eafa	-0.10201068
53	0x3d764ebf	0.060133692
54	0xbd6bc924	-0.05756487
55	0x3d512eba	0.051069953
56	0x3e2896ec	0.16463822
57	0x3dbb9ce1	0.09160782
58	0xbe069dde	-0.13146159
59	0xbde359bd	-0.111011006
60	0x3d09928a	0.033587016
61	0x3d448401	0.04797745
62	0x3d104659	0.03522334
63	0xbdae9f38	-0.08526462
64	0x3d63ca35	0.05561276
65	0x3e2c01ca	0.16797557
66	0xbe0a79cc	-0.13523024
67	0xbe12af7e	-0.14324757
68	0xbcb18d76	-0.0216739
69	0x3d241a48	0.040064126
70	0xbdcb3150	-0.09921515
71	0xbe01508b	-0.12628381
72	0x3cf6eb61	0.030141534
73	0x3e07b717	0.13253437
74	0x3ce21697	0.027598662
75	0x3e071d11	0.13194682
76	0x3e115754	0.1419347
77	0x3d46549b	0.04842053
78	0xbdcda174	-0.1004056
79	0xbe05b638	-0.13057792
80	0x3d6c305e	0.057663314
81	0x3db870ce	0.09005891
82	0xbdf0eba5	-0.117636956
83	0xbde383de	-0.11109136
84	0xbd177c92	-0.036984034
85	0xbcf4bde0	-0.029875696
86	0xbd44ce41	-0.04804826
87	0xbd27e9ee	-0.040994577
88	0xbdd1dc52	-0.10247101
89	0xbd60baef	-0.054865774
90	0x3d90ca9a	0.07069893
91	0xbe5262b2	-0.20545462
92	0x3e1d650b	0.15370576
93	0x3de24709	0.11048705
94	0xbd8a2baa	-0.067466095
95	0xbd8231da	-0.06357165
96	0xbd8d5417	-0.069008045
97	0x3c9c655d	0.019091303
98	0xbd4552fb	-0.04817484
99	0x3a916636	0.0011093083
100	0xbdce92cc	-0.10086593
101	0xbd3f4dbb	-0.04670499
102	0xbe4a4780	-0.19753838
103	0xbda92624	-0.08259228
104	0x3d6187ed	0.05506127
105	0x3d0ebf72	0.034850545
106	0xbd856ac5	-0.06514505
107	0xbb6b15c0	-0.0035871118
108	0x3d3df009	0.046371493
109	0x3dbc0de1	0.09182335
110	0x3dcda27d	0.10040758
111	0x3beaabec	0.007161608
112	0xbc4d1ebd	-0.012519536
113	0xbc8a0dee	-0.016852345
114	0x3d1f6710	0.038916647
115	0xbd3b47b5	-0.045722682
116	0xbd45c61f	-0.048284646
117	0xbd6fd8a5	-0.058556218
118	0x3d97f1d2	0.074191704
119	0x3c7a7e97	0.01528897
120	0xbda1bf3b	-0.078978024
121	0x3d27ecb8	0.040997237
122	0x3d143225	0.036180634
123	0x3c3dfd4b	0.011596034
124	0xbd30ca74	-0.043161824
125	0xbd40d8df	-0.047081824
126	0x3d885126	0.06656103
127	0x3d0ebea1	0.034849767
128	0x3ccacb32	0.024755094
129	0xbd17169b	-0.036886793
130	0xbb950567	-0.004547763
131	0xbd14ae0a	-0.03629879
132	0x3d368ad1	0.04456598
133	0x3dab80e1	0.08374191
134	0xbdb4d1ef	-0.08829104
135	0xbd4a7a3c	-0.049432978
136	0x3cf2d94b	0.029644629
137	0xbcba5b24	-0.022748537
138	0x3e0de640	0.13857365
139	0x3d9242f7	0.07141679
140	0xbdb01f1d	-0.085996844
141	0xbd4934b0	-0.049122512
142	0xbd27bec2	-0.040953405
143	0x3b7567b8	0.0037445854
144	0xbd2ac734	-0.04169388
145	0x3cce7352	0.025201473
146	0xbda20d42	-0.07912685
147	0x3dc63a52	0.096790925
148	0xbc0112c6	-0.007878011
149	0x3b9df61c	0.0048205983
150	0xbcbc6bff	-0.023000715
151	0x3e023e60	0.12719107
152	0x3af56b43	0.0018723983
153	0xbd2cc7b6	-0.042182647
154	0x3d4584ad	0.048222233
155	0x3c943807	0.018093122
156	0xbdc7af61	-0.09750248
157	0x3c76ccf4	0.015063513
158	0xbc6e9606	-0.014562136
159	0xbd15c367	-0.036563303
160	0x3c8e87b5	0.017398695
161	0x3d8268b7	0.06367629
162	0x3d716dc7	0.058942582
163	0x3b2e0033	0.0026550412
164	0x3c6fb323	0.014630112
165	0xbe14d59c	-0.1453461
166	0x3db19e1e	0.086727366
167	0xbcbdee28	-0.02318485
168	0x3af9728c	0.001903133
169	0x3bbd3fb6	0.005775417
170	0x3e0940e8	0.13403666
171	0xbc2fed0e	-0.010737671
172	0x3db93e3c	0.090450734
173	0x3ddeb217	0.10873812
174	0xbe372dd8	-0.17888582
175	0xbbe10733	-0.0068673133
176	0x3c293b22	0.01032904
177	0xbda5d873	-0.08097925
178	0xbd9e1496	-0.0771877
179	0x3daa1b7e	0.08306025
180	0xbdb0ae0e	-0.08626948
181	0xbd82c770	-0.06385696
182	0xbd401fc4	-0.046905294
183	0x3d01f7e3	0.031730544
184	0x3e0a1e42	0.13488105
185	0x3da60b4d	0.08107624
186	0xbda29662	-0.079388395
187	0xbdd48d87	-0.10378557
188	0x3a59eb18	0.0008312925
189	0x3e7b99bc	0.24570364
190	0xbdb7de61	-0.08977962
191	0x3d1ce891	0.03830773
192	0x3e074404	0.1320954
193	0x3e30e272	0.17273882
194	0xbe167b93	-0.14695577
195	0xbc932274	-0.017960764
196	0xbe408dc7	-0.18804084
197	0xbe08110b	-0.13287751
198	0xbd827373	-0.063696764
199	0xb9d1bd5c	-0.0004000467
200	0x3e6871ed	0.22699709
201	0xbd838e1c	-0.064235896
202	0x3e15ee62	0.14641717
203	0x3e0738d0	0.13205266
204	0x3d6c709f	0.05772459
205	0x3ccd389f	0.025051413
206	0xbd8809db	-0.06642505
207	0x3e168bf8	0.14701831
208	0xbc1fd155	-0.0097544985
209	0xbe0b0ca5	-0.13579042
210	0x3d0e49a6	0.034738205
211	0xbd747619	-0.05968294
212	0xbe048d5b	-0.12944548
213	0xbce88ed7	-0.028388424
214	0x3d94ce03	0.07265856
215	0x3d5c9bb9	0.053859446
216	0x3e350efb	0.17681496
217	0xbdd9496f	-0.106097095
218	0xbdc8ccc1	-0.09804679
219	0x3d352f93	0.044234823
220	0xbda0af96	-0.0784599
221	0xbd72d1b4	-0.05928202
222	0xbd8bba14	-0.06822601
223	0xbd82bcf0	-0.06383693
224	0x3d3df62b	0.046377342
225	0xbd3638e7	-0.04448786
226	0xbc2ee136	-0.010673812
227	0xbd44eb6e	-0.048076086
228	0xbd7f3ada	-0.062311985
229	0x3d9aab14	0.07552162
230	0x3d903e46	0.07043128
231	0xbdc12f42	-0.09432842
232	0xbe777adc	-0.24167961
233	0x3d96f907	0.07371717
234	0x3e2d38f8	0.16916263
235	0x3cc2ed7e	0.023794886
236	0xbd333077	-0.04374739
237	0xbc4eeb18	-0.012629293
238	0x3e1453d8	0.14485109
239	0x3e0f4f33	0.13995056
240	0x3bed102e	0.007234595
241	0x3da6af2f	0.08138882
242	0xbd1e28a8	-0.03861299
243	0xbd39c213	-0.0453511
244	0xbe112dbf	-0.14177607
245	0xbdc497b4	-0.095992476
246	0x3e1b04a6	0.15138492
247	0x3e1f9e8b	0.15587823
248	0x3d992a0d	0.07478724
249	0x3e8332a1	0.25624564
250	0x3d8b7771	0.06809891
251	0x3d9096eb	0.07060035
252	0x3c4ef3e4	0.01263139
253	0xbd595967	-0.053063776
254	0xbd5cb3cc	-0.053882405
255	0xbce2af7d	-0.02767157

hidden_layers.0.bias f4 [300]
0	0xbe435225	-0.19074304
1	0x3ec5e613	0.38652095
2	0x3e008318	0.12550008
3	0x3db483a1	0.08814169
4	0x3d8f3976	0.06993382
5	0x3e8d7127	0.2762539
6	0xbd13aacf	-0.036051568
7	0x3dc30003	0.095214866
8	0x3d859859	0.06523199
9	0x3dd4a490	0.1038295
10	0x3e6c1db6	0.23058209
11	0x3ee31630	0.44352865
12	0xbd8d4c6f	-0.06899344
13	0xbe44ff8d	-0.1923811
14	0x3d90375e	0.070418105
15	0xbd9d8a46	-0.07692389
16	0x3e81a070	0.25317717
17	0x3d85b6f0	0.06529033
18	0x3e4c1d21	0.19932987
19	0xbd93e2c8	-0.072209895
20	0x3df02205	0.11725239
21	0x3e60f295	0.21967538
22	0x3e7a21c5	0.24426945
23	0xbe065f50	-0.13122296
24	0x3efc0ae9	0.49227074
25	0xbc093ca5	-0.008376275
26	0x3e8c987d	0.2746009
27	0x3e311c82	0.17296031
28	0x3e0de5b1	0.13857152
29	0x3c8a5dad	0.016890371
30	0x3d900068	0.070313275
31	0x3dfc7b86	0.12328248
32	0x3dfb4c1d	0.12270377
33	0x3d4455e7	0.047933485
34	0xbc1dc75e	-0.009630052
35	0xbe147d86	-0.14501008
36	0x3eba81c0	0.36427116
37	0x3dc9d982	0.098559394
38	0x3ea5d91c	0.32392204
39	0x3e27a71d	0.16372342
40	0x3ef1118a	0.47083694
41	0xbc1c12a6	-0.0095259305
42	0x3e375f3d	0.17907424
43	0x3e61eb23	0.22062354
44	0x3e732551	0.23744704
45	0x3e0db227	0.13837491
46	0xbded02ae	-0.11572777
47	0x3d8bdea7	0.06829577
48	0xbd996204	-0.07489398
49	0xbe1bdcfe	-0.1522102
50	0x3e757b71	0.2397287
51	0x3de8b20c	0.11362085
52	0x3ddd0356	0.10791652
53	0x3e3bfa07	0.18357097
54	0x3e69fdfc	0.22850794
55	0x3db17cc2	0.08666374
56	0x3e28217a	0.1641902
57	0xbdf1b066	-0.118012235
58	0xbdc3968f	-0.09550201
59	0x3e5c2bf3	0.2150114
60	0x3e02924c	0.1275112
61	0x3cac993f	0.021069167
62	0x3e78778b	0.24264352
63	0x3e72db94	0.23716575
64	0x3e188b9c	0.14897007
65	0x3c806870	0.0156748
66	0x3e4ac30d	0.19800968
67	0x3d12b6f9	0.035819028
68	0x3e0e9639	0.13924493
69	0x3d807fd7	0.062743835
70	0x3e576f6c	0.21038598
71	0x3e55ca34	0.20877916
72	0xbd978c87	-0.0739985
73	0x3e2245b7	0.15846907
74	0x3e4306a6	0.19045505
75	0xbce0bf9a	-0.027435113
76	0xbd6145d0	-0.05499822
77	0x3c146f71	0.009059773
78	0xbe626c71	-0.2211168
79	0x3f07bc38	0.53021574
80	0x3dab425e	0.08362268
81	0x3e485a4d	0.19565697
82	0xbd89e2ab	-0.067326866
83	0x3e62b9cf	0.22141193
84	0x3e8894b2	0.26675946
85	0xbd421533	-0.0473835
86	0xbdbfc2d9	-0.09363336
87	0xbde3169e	-0.11088298
88	0x3cf2a31f	0.029618798
89	0xbdc1698c	-0.094439596
90	0xbe0888b6	-0.13333401
91	0x3e3c8eee	0.18413898
92	0x3d3dbb69	0.046321306
93	0xbe0aeaad	-0.13566084
94	0xbd4ac409	-0.04950336
95	0x3e0c783c	0.13717741
96	0xbe6c231c	-0.23060268
97	0x3e09b60d	0.13448353
98	0x3e6702ed	0.2255971
99	0x3c90df95	0.017684737
100	0x3e91ad38	0.28452468
101	0x3e82d034	0.2554947
102	0xbd8d247f	-0.06891727
103	0x3dea64d2	0.11445011
104	0x3e354b68	0.17704546
105	0x3e11b301	0.14228441
106	0x3e9236f5	0.28557554
107	0x3eb675ee	0.35636848
108	0x3dec0132	0.115236655
109	0x3ecd2074	0.40063822
110	0x3ed335f1	0.41252092
111	0x3e4eae07	0.20183574
112	0x3e952ce2	0.29135805
113	0x3c08a51c	0.008340146
114	0x3db73522	0.08945681
115	0xba06aea9	-0.0005137721
116	0x3e01706b	0.1264054
117	0x3dbb9945	0.09160093
118	0x3ea55ab5	0.32295766
119	0xbbabb42f	-0.0052399854
120	0x3c9b26e1	0.018939437
121	0x3e4010ab	0.18756358
122	0x3eb62926	0.3557827
123	0x3dadbc19	0.084831424
124	0xbd44c6b6	-0.048041068
125	0x3ea35597	0.31901237
126	0xbe238ad6	-0.1597093
127	0xbd99a53c	-0.07502219
128	0x3e81e414	0.25369322
129	0xbccda4aa	-0.025102932
130	0x3dfa7c2a	0.12230714
131	0x3ecded20	0.40219975
132	0xbdac2132	-0.08404769
133	0x3f0b89ec	0.5450733
134	0xbd5bc0a7	-0.053650524
135	0xbd41036b	-0.0471224
136	0x3e2fd829	0.17172302
137	0xbe5b378f	-0.21407913
138	0x3e0a23d0	0.13490224
139	0xbe82cf9b	-0.25549015
140	0x3c84b790	0.01620081
141	0xbd7ddab1	-0.06197614
142	0x3e8d21f3	0.27564964
143	0x3ea3afeb	0.31970152
144	0xbbe60488	-0.007019583
145	0xbe2f63b7	-0.17127882
146	0xbbb64bdf	-0.0055632438
147	0x3e756dac	0.23967618
148	0xbe81fc29	-0.25387695
149	0x3d9c0e27	0.07619887
150	0x3e9b8c94	0.3038069
151	0xbe48d6f6	-0.19613251
152	0x3e1cc71c	0.15310329
153	0x3e44ed04	0.1923104
154	0x3db11a1e	0.086475596
155	0xbc1554c5	-0.009114449
156	0x3d908da7	0.07058268
157	0x3ddc5e94	0.10760227
158	0x3e598430	0.21241832
159	0x3d8be9a5	0.068316735
160	0x3e6c20d6	0.23059401
161	0xbcaedddf	-0.02134603
162	0x3e3133b1	0.17304875
163	0x3dd6fd81	0.10497571
164	0xbe142377	-0.14466654
165	0x3e5bd1fa	0.21466818
166	0x3e4ec1cb	0.20191114
167	0x3ec1a806	0.37823504
168	0xbbbdc814	-0.0057916734
169	0x3daa3c94	0.083123356
170	0x3c79a2f5	0.015236606
171	0x3c3505e7	0.0110487705
172	0x3eb93cd5	0.36179224
173	0x3e00d72f	0.12582086
174	0x3e5e81bc	0.21729177
175	0xbdae8371	-0.08521164
176	0x3ea06f26	0.313348
177	0x3d952fdd	0.0728452
178	0x3e6eeba1	0.23332073
179	0x3ec94e8b	0.39317736
180	0xbe0d735e	-0.1381354
181	0xbdaccb64	-0.08437231
182	0xbc0c0636	-0.008546403
183	0x3dda210e	0.10650836
184	0x3e163abc	0.14670843
185	0x3efa8de7	0.48936388
186	0x3e1967dd	0.14981027
187	0xbe59702a	-0.21234193
188	0x3ce9973f	0.028514503
189	0x3e85cfe6	0.26135176
190	0x3ce9190d	0.028454328
191	0x3dc4ce19	0.096096225
192	0x3d4338fe	0.047661774
193	0x3d5924c5	0.05301358
194	0xbcd90c70	-0.026495188
195	0x3e5b4398	0.21412504
196	0x3df87c4c	0.12133083
197	0x3c303e52	0.010757046
198	0x3cd76e5c	0.02629774
199	0x3cee9487	0.029123558
200	0x3e954853	0.29156741
201	0xbd19a2ce	-0.03750878
202	0xbd3286a3	-0.04358543
203	0x3dbc0e0f	0.09182369
204	0x3da24058	0.07922429
205	0x3dabd7ba	0.08390756
206	0xbdd82cef	-0.105554454
207	0xbdec0eae	-0.115262374
208	0x3d280e8d	0.0410295
209	0x3ecebe9c	0.40379798
210	0x3d9a7bfa	0.07543178
211	0x3c349574	0.0110219605
212	0x3f1010fa	0.56275904
213	0xbb9fb871	-0.004874282
214	0x3ecf252e	0.40458053
215	0x3deecdd0	0.11660349
216	0x3e4a73bb	0.1977071
217	0xbd27e548	-0.040990144
218	0xbe4963e5	-0.19667013
219	0x3e056ab2	0.13028982
220	0xbdc72ebe	-0.09725712
221	0x3ef2bbe1	0.47408965
222	0x3e3b60fc	0.18298715
223	0x3ec1c2ae	0.3784384
224	0x3e717a48	0.23581803
225	0x3c7dd596	0.015492817
226	0xbe301455	-0.17195256
227	0x3e1ac371	0.15113617
228	0x3dab5a98	0.08366889
229	0x3ee90372	0.4551044
230	0xbdc389c9	-0.09547765
231	0x3dd83a8c	0.10558042
232	0x3ea99b54	0.33126318
233	0x3eebea5a	0.46077234
234	0x3ed0cba0	0.40780354
235	0xbc2ee1b9	-0.010673934
236	0x3e91c16e	0.28467888
237	0x3bdb9660	0.0067012757
238	0x3d251d91	0.0403114
239	0x3e0724b9	0.13197602
240	0xbd737daf	-0.059446033
241	0x3d9b9210	0.075962186
242	0x3c92c549	0.017916339
243	0x3d1d56e9	0.038412962
244	0x3bc34c22	0.0059600035
245	0xbd332879	-0.04373977
246	0x3e17e0b3	0.1483181
247	0x3e60e17c	0.21961015
248	0xbd4c7fb6	-0.049926482
249	0xbde6c6af	-0.11268365
250	0x3dcb6a1f	0.0993235
251	0xbdcbf8f5	-0.09959594
252	0x3da43b3e	0.08019112
253	0x3ea178d0	0.31537485
254	0x3e611863	0.21981959
255	0xbdcacb84	-0.09902099

hidden_layers.2.weight f4 [100, 300]
0	0xbdcb42fe	-0.09924887
1	0x3da52c81	0.08065129
2	0xbdc23be6	-0.09484081
3	0xbe045ff6	-0.12927231
4	0x3db77b5d	0.089590766
5	0x3c210f96	0.009830376
6	0xbd6cba1a	-0.057794668
7	0x3c941343	0.018075591
8	0xbd39e988	-0.04538873
9	0x3c291f60	0.010322422
10	0x3d9c3580	0.07627392
11	0x3e0b3580	0.13594627
12	0xbcf2469e	-0.029574689
13	0xbd3e56b7	-0.046469416
14	0x3d34497d	0.044015396
15	0xbdc492e4	-0.0959833
16	0x3dca4481	0.09876347
17	0x3d60eeca	0.054915227
18	0xbd96afe3	-0.073577665
19	0xbd9c7962	-0.076403394
20	0xbd9a4877	-0.07533353
21	0x3b85a3a1	0.004078344
22	0x3dc8aec3	0.09798958
23	0xbe052b13	-0.13004713
24	0xbe5f0c66	-0.21782073
25	0x3b8c30c4	0.0042782743
26	0xbd0508c1	-0.03247905
27	0x3c280a09	0.010256299
28	0xbc598073	-0.013275254
29	0xbde72393	-0.11286082
30	0x3d1edcfb	0.038784962
31	0xbb0bf0b9	-0.0021353199
32	0x3d8ce7d0	0.06880152
33	0x3b861466	0.004091787
34	0xbe1e20e3	-0.15442233
35	0xbcd16f56	-0.025565784
36	0x3d7677aa	0.060172714
37	0xbd8346c7	-0.06409984
38	0xbdc9781c	-0.09837362
39	0x3d963cd1	0.073358186
40	0x3d891605	0.06693653
41	0x3d3283c1	0.04358268
42	0xbbcea5d2	-0.0063063884
43	0x3d602080	0.054718494
44	0x3d5e8ca8	0.05433336
45	0xbcce1bfe	-0.025159832
46	0xbd0d1096	-0.034439646
47	0xbd51047e	-0.051029675
48	0xbe04677b	-0.129301
49	0xbe1e3983	-0.15451626
50	0x3d8f55ab	0.06998762
51	0xbc8059dc	-0.015667848
52	0xbd0717f9	-0.032981846
53	0x3b743753	0.003726442
54	0xbd60c7b7	-0.054877963
55	0x3dbf54b0	0.09342325
56	0x3ded03c5	0.115729846
57	0xbcd9a48a	-0.026567716
58	0xbbc50805	-0.006012919
59	0xbdbe28dc	-0.09285137
60	0x3dd70de0	0.10500693
61	0xbca07002	-0.01958466
62	0x3cef4098	0.029205605
63	0x3dd6c965	0.10487632
64	0xbc86ba4b	-0.016446253
65	0x3da3cb96	0.07997815
66	0x3cd819ba	0.026379455
67	0xbd983bdd	-0.07433293
68	0xbddd1f94	-0.10797039
69	0xbcc2e025	-0.023788521
70	0xbd3a89fa	-0.04554174
71	0xbd2dd7f8	-0.042442292
72	0x3d2746af	0.040838894
73	0x3dd6c495	0.10486714
74	0xbd4fc99a	-0.05072937
75	0xbe6c7dec	-0.2309491
76	0x3d116802	0.03549958
77	0xbda64a58	-0.08119649
78	0x3cbd92fd	0.023141379
79	0x3e01b53b	0.1266679
80	0xbd960572	-0.07325257
81	0x3d6f311f	0.058396455
82	0xbcee49c3	-0.029087907
83	0x3d8922e9	0.06696112
84	0x3d38ea67	0.04514542
85	0x3cf5107a	0.029915083
86	0xbcb16b22	-0.02165753
87	0x3cec889d	0.028873736
88	0x3becc12e	0.0072251773
89	0xbe5e6b5d	-0.21720643
90	0xbdd0395e	-0.10167192
91	0x3ccda3b7	0.02510248
92	0xbd7b5208	-0.061357528
93	0xbd216a9b	-0.039408308
94	0x3c321c0b	0.010870944
95	0x3d02e447	0.031955983
96	0xbdeb0fdf	-0.114776365
97	0x3d22804f	0.039673146
98	0x3c916118	0.017746493
99	0x3d3a49d4	0.045480564
100	0x3db25b75	0.0870885
101	0xbdc79b17	-0.09746378
102	0x3d4de5e5	0.050268073
103	0x3d5965bc	0.053075537
104	0xbc073d01	-0.008254291
105	0xbccd0b56	-0.02502982
106	0x3dee53dc	0.11637089
107	0x3d85d51b	0.06534787
108	0xbd7a60da	-0.06112752
109	0xbbe33ef9	-0.006934997
110	0x3e1d501d	0.15362592
111	0x3bca5aee	0.0061753904
112	0xbd73ed4b	-0.059552472
113	0x3d98e026	0.07464628
114	0x3cfa0fce	0.030525114
115	0xbcb8f760	-0.022578895
116	0xba89ad7f	-0.0010503976
117	0x3d34c060	0.044128776
118	0x3d90a180	0.07062054
119	0xbe573597	-0.21016537
120	0xbbacf110	-0.0052777603
121	0xbc06e456	-0.0082331505
122	0x3e27c843	0.16384988
123	0x3cfdbf1b	0.030974915
124	0xbd8574fe	-0.06516455
125	0xbb40f989	-0.002944561
126	0xbe2cbf18	-0.16869771
127	0xbe10be91	-0.14135195
128	0x3e044aec	0.12919205
129	0xbe0bd0cd	-0.1365387
130	0x3e091d64	0.13390118
131	0x3e380c10	0.17973351
132	0x3cb54ce5	0.022131393
133	0xbbff42b0	-0.007789932
134	0xbce2aabe	-0.027669307
135	0x3d9e826b	0.07739719
136	0x3e0672c1	0.13129713
137	0x3dd965c6	0.10615115
138	0xbcc4d4b3	-0.024027204
139	0x3da8e078	0.08245939
140	0x3d491af3	0.049097966
141	0x3c45a82d	0.012064022
142	0x3dd01775	0.10160724
143	0x3dc911a6	0.09817819
144	0x3cca4e6a	0.024695594
145	0xbded0cea	-0.11574729
146	0xbe10c31f	-0.14136933
147	0xbca9a7aa	-0.020709831
148	0xbd0ec9fb	-0.034860592
149	0x3c3aa564	0.011391971
150	0x3df49ee7	0.11944371
151	0x3d0559aa	0.032556213
152	0x3b9a5716	0.0047100885
153	0x3d1becf9	0.03806779
154	0xbbee7f30	-0.0072783455
155	0x3e253172	0.16132143
156	0xbd6d53dd	-0.057941306
157	0x3c5c8da0	0.0134615
158	0x3e1db3a8	0.15400565
159	0x3d31f597	0.043447103
160	0x3d8bc1ea	0.068240955
161	0x3cd3ec8e	0.025869634
162	0xbabcd316	-0.001440617
163	0xbd89cc42	-0.06728412
164	0x3db7673e	0.08955239
165	0x3e89e213	0.26930293
166	0xbcade3be	-0.02122676
167	0x3d758b4e	0.059947304
168	0x3d8814aa	0.06644566
169	0xbc0268f2	-0.007959591
170	0x3db32360	0.087469816
171	0x3e285e32	0.16442183
172	0xbce01bdb	-0.027357033
173	0xbd3ed019	-0.046585176
174	0x3d507ece	0.05090218
175	0xbdf3f5c4	-0.119121104
176	0x3e0ab4c6	0.13545522
177	0x3d18279a	0.037147142
178	0x3c997386	0.018731844
179	0x3d87d62f	0.06632649
180	0xbca6506d	-0.020302022
181	0xbd89a0aa	-0.06720097
182	0x3d9c10c3	0.076203845
183	0xbe2c0d49	-0.16801943
184	0x3b757658	0.0037454572
185	0x3b974d46	0.004617366
186	0x3d3e6e81	0.046492103
187	0x3d84e0ea	0.064882115
188	0xbd3e66c3	-0.04648472
189	0x3d96e4e6	0.07367878
190	0xbc56c9c2	-0.013109626
191	0xbceb9a4e	-0.028760102
192	0xbca55ff9	-0.020187365
193	0xbd9db275	-0.077000536
194	0x3d839a3b	0.064259015
195	0x3dd6cabf	0.104878895
196	0x3b43b467	0.0029862167
197	0x3d4384db	0.047734123
198	0x3d930c9b	0.07180139
199	0x3b26ab8e	0.0025431844
200	0xbd3f9a76	-0.046778165
201	0x3a9f41da	0.0012150363
202	0xbce91665	-0.028453061
203	0xbdb5ba42	-0.088734165
204	0x3dc8c3ea	0.09802993
205	0x3dc5db75	0.09660999
206	0x3be2af2c	0.006917855
207	0x3cdba4b6	0.026811939
208	0xbd018961	-0.031625155
209	0x3df18cfb	0.11794468
210	0xbcd5a180	-0.026077986
211	0xbadab2ed	-0.0016685404
212	0xbd2ce314	-0.042208746
213	0xbe1c518c	-0.15265483
214	0x3de305f9	0.110851236
215	0x3d0dfd38	0.034665316
216	0x3de0f77a	0.109847024
217	0x3e33cdd7	0.1755899
218	0xbcd286da	-0.025699068
219	0x3d9cec3b	0.07662245
220	0x3d7604c7	0.06006315
221	0x3d97f951	0.074206
222	0xbdbd89bf	-0.092547886
223	0x3db62919	0.088945575
224	0xbd6a7eb9	-0.05724976
225	0xbda29545	-0.07938627
226	0xbd820e60	-0.06350398
227	0x3da3b853	0.079941414
228	0x3d8f896c	0.07008633
229	0x3d87c8a1	0.06630064
230	0x3d7cf87a	0.061760403
231	0x3c4b469e	0.012406973
232	0x3d954895	0.072892345
233	0xbc8012d7	-0.015633984
234	0x3da001c0	0.07812834
235	0x3bc91793	0.0061368435
236	0x3ca009db	0.01953595
237	0xbd24bacc	-0.040217206
238	0x3cca68e2	0.024708215
239	0xbe34872e	-0.17629692
240	0xbd1ca2af	-0.038241085
241	0x3d37f483	0.04491092
242	0xbdb9661b	-0.09052678
243	0xbe1410e7	-0.14459573
244	0x39759e08	0.00023423892
245	0x3d92e7fd	0.071731545
246	0xbd2ebe38	-0.042661875
247	0xbd63b2ee	-0.055590563
248	0xbda29233	-0.079380415
249	0xbdb7e66f	-0.089794986
250	0xbc3cf2af	-0.01153247
251	0x3dad718a	0.084689215
252	0x3c95c86e	0.018284049
253	0xbd8c93af	-0.06864106
254	0x3cfad058	0.030616924
255	0x3dbeb9ab	0.09312757

hidden_layers.2.bias f4 [100]
0	0x3e0b9ed2	0.13634804
1	0x3e7f8bc9	0.24955668
2	0x3e31d09a	0.17364731
3	0x3dd8be4b	0.105831705
4	0x3de7578f	0.11295997
5	0x3e2e2647	0.17006789
6	0xbd54f0b1	-0.051987354
7	0x3e1d98e6	0.15390357
8	0x3d6f2364	0.05838336
9	0xbbdc6f1d	-0.006727113
10	0x3e0dfb52	0.13865402
11	0x3ddc66e2	0.10761811
12	0x3d924dd9	0.071437545
13	0xbbab2d78	-0.005223926
14	0x3e19e25a	0.15027753
15	0x3e3dbef9	0.18529882
16	0x3d855b31	0.06511534
17	0x3e641365	0.22273023
18	0x3e11dc43	0.1424418
19	0x3d75706b	0.059921663
20	0xbd182272	-0.037142225
21	0x3e063e06	0.13109598
22	0x3e2d3ffb	0.16918938
23	0x3e7d56e6	0.2474018
24	0x3dfb49de	0.122699484
25	0x3e8375ae	0.2567572
26	0xbcd99e59	-0.026564764
27	0xbc2390bc	-0.009983238
28	0x3e67e1b8	0.22644699
29	0x3e29ab34	0.16569215
30	0x3e1b44b8	0.15162933
31	0x3e870fa5	0.26379123
32	0x3d9adccc	0.07561645
33	0xbd4c5e36	-0.049894534
34	0x3df99903	0.12187388
35	0x3e5d2804	0.21597296
36	0x3cb2af66	0.021812152
37	0x3d963c00	0.07335663
38	0x3e6010bb	0.21881382
39	0x3e33cb56	0.17558035
40	0x3c0b587c	0.008504983
41	0x3ba41928	0.0050078817
42	0x3e7536b6	0.23946652
43	0x3e3822de	0.17982051
44	0x3e6c6df4	0.23088819
45	0x3e01c3af	0.12672304
46	0x3db32199	0.087466426
47	0x3d6491d6	0.055803142
48	0x3e8e1667	0.27751467
49	0xbde74f10	-0.11294377
50	0xbd743d60	-0.059628844
51	0x3d6f3146	0.0583966
52	0x3ea63010	0.32458544
53	0x3e98b4b7	0.29825374
54	0xbcbab374	-0.022790648
55	0x3ddde12d	0.108339645
56	0x3eb89803	0.36053476
57	0x3e11a8e0	0.14224577
58	0xbd967939	-0.0734734
59	0x3e898fe4	0.26867592
60	0x3d8c0f36	0.06838839
61	0x3e20425b	0.15650313
62	0x3e952e81	0.29137042
63	0x3d904d23	0.07045963
64	0xbd0dad6f	-0.034589227
65	0x3dd5ab1a	0.10433026
66	0x3e544692	0.20730045
67	0x3e6695c4	0.22518069
68	0x3e2e372a	0.17013231
69	0x3e28d964	0.16489178
70	0xbc6c2f16	-0.014415523
71	0x3e1da15e	0.15393588
72	0x3c478aff	0.012179135
73	0x3e19bf16	0.150143
74	0x3d49c3cf	0.049259003
75	0x3e6af87a	0.22946349
76	0xbd8bd3d4	-0.068275124
77	0x3e0ae8b1	0.13565327
78	0x3e11a7f7	0.1422423
79	0x3e744a39	0.23856439
80	0x3d64e814	0.05588539
81	0x3e0c7cea	0.13719526
82	0xbde235e3	-0.11045434
83	0x3d2829f7	0.041055646
84	0xbd900a16	-0.07033174
85	0x3a8a55d6	0.0010554146
86	0x3d28dedf	0.04122817
87	0x3dbbfa9d	0.0917866
88	0x3e3aa2d1	0.18226172
89	0xbddb3d4a	-0.10705049
90	0x3e46b542	0.19405082
91	0x3c94fc3c	0.018186681
92	0x3e87849f	0.2646837
93	0x3df3876e	0.118910655
94	0x3dd4c400	0.103889465
95	0xbcd75d60	-0.026289642
96	0x3d032ea6	0.03202691
97	0x3e6875c4	0.22701174
98	0x3d732836	0.05936452
99	0x3dd2cf0d	0.10293398

hidden_layers.4.weight f4 [20, 100]
0	0x3d77806a	0.0604252
1	0xbcf5fce0	-0.030027807
2	0x3cfbb8b5	0.030727724
3	0xbd60c69a	-0.0548769
4	0xbca59b4f	-0.020215658
5	0x3d25afbc	0.040450796
6	0xbd2c57ad	-0.0420758
7	0x3cabcc95	0.020971576
8	0xbc4e63fc	-0.01259708
9	0x3d454ce5	0.048169035
10	0xbce33b4d	-0.027738238
11	0xbda84a13	-0.082172535
12	0xbc52fc65	-0.012877558
13	0x3e2ba804	0.16763312
14	0xbd4912b8	-0.049090117
15	0xbd6a060e	-0.05713468
16	0xbd88814a	-0.06665285
17	0xbd608bbe	-0.05482077
18	0x3df60e16	0.120144054
19	0xbe4e8bbf	-0.20170496
20	0xbe3f45bf	-0.1867895
21	0xbe0c9cba	-0.13731661
22	0xbdaa3793	-0.08311381
23	0x3d94086b	0.07228168
24	0xbe5455bd	-0.20735832
25	0x3b8cda69	0.0042984975
26	0x3ddc7f1c	0.10766432
27	0x3d5197db	0.05117021
28	0x3d256f6c	0.040389463
29	0x3d119f7b	0.035552483
30	0x3dee321e	0.11630653
31	0x3e0895b4	0.13338357
32	0xbcadb0d9	-0.021202492
33	0x3cc7d1c4	0.024392016
34	0x3d7f9b1b	0.06240378
35	0xbe2ec1c0	-0.17066097
36	0xbcd0dcdc	-0.025495939
37	0xbd848926	-0.064714715
38	0xbd4ae239	-0.04953215
39	0x3de52a6b	0.11189731
40	0x3d97d6fd	0.07414053
41	0xbdcc63a3	-0.09979942
42	0x3e00dc8e	0.12584135
43	0xbd6ba011	-0.057525698
44	0x3ab427ad	0.0013744734
45	0x3defe2fb	0.11713215
46	0xbdfc0c74	-0.12307063
47	0x3dbb5350	0.0914675
48	0xbd04b9e5	-0.032403845
49	0xbe31f4cf	-0.17378543
50	0x3d60a46a	0.054844297
51	0xbdcbeb9e	-0.0995705
52	0x3dfd1133	0.12356796
53	0x3de50034	0.11181679
54	0xbe31f340	-0.17377949
55	0x3e11bbba	0.14231768
56	0x3d7b3ee9	0.061339293
57	0xbe0ad72c	-0.13558644
58	0xbdf7ffc0	-0.12109327
59	0x3e04f35e	0.12983462
60	0x3dd3a3f0	0.10334003
61	0xbc8d36f6	-0.017238121
62	0x3d2c579b	0.042075735
63	0x3d64b910	0.05584055
64	0xbb3ffd0c	-0.0029295115
65	0xba14be10	-0.00056740735
66	0x3df67b03	0.120351814
67	0x3dbc02ef	0.09180247
68	0xbcbfbc7d	-0.023405308
69	0xbcb2912b	-0.021797737
70	0x3de4d7d2	0.11173977
71	0x3e19365a	0.1496214
72	0x3ced4451	0.02896324
73	0x3e1db5cd	0.15401383
74	0x3d47cfb4	0.048782066
75	0x3dee28e5	0.11628894
76	0x3d2748dd	0.040840972
77	0x3b4ae6a8	0.0030960236
78	0xbdd87f8f	-0.10571205
79	0x3e08fa00	0.13376617
80	0xbc325e9b	-0.0108868135
81	0x3d8c6b01	0.06856347
82	0xbddfd147	-0.10928588
83	0xbe486361	-0.1956916
84	0x3d4506f7	0.048102345
85	0x3cf72f09	0.030173795
86	0xbd665dfa	-0.056241967
87	0x3dc3e101	0.095644005
88	0xbd6b9cee	-0.057522707
89	0xbdc605c3	-0.09669068
90	0x3deca19c	0.11554262
91	0x3b7434a8	0.003726283
92	0x3c7101af	0.014709874
93	0x3ce1ae6c	0.027548991
94	0xbda56546	-0.08075957
95	0xbd92ac30	-0.071617484
96	0xbd8636cd	-0.06553421
97	0x3dd361f5	0.10321418
98	0x3db51d35	0.088434614
99	0x3d0bd93c	0.034142718
100	0x3d1bb1a4	0.03801121
101	0x3d7197fd	0.058982838
102	0xbe270596	-0.16310725
103	0xbd886b5d	-0.06661103
104	0xbe1d4ea2	-0.15362027
105	0x3dcaeeeb	0.09908851
106	0x3cfa27f7	0.030536635
107	0x3e301fb3	0.17199592
108	0xbec62442	-0.38699538
109	0xbe28652c	-0.16444844
110	0x3e0efff0	0.1396482
111	0x3d815af8	0.06316179
112	0x3e2894e4	0.16463047
113	0xbe8d21a1	-0.2756472
114	0x3de124ba	0.10993333
115	0x3dc7bd41	0.09752894
116	0xbde8f815	-0.11375443
117	0x3c12df2d	0.008964342
118	0x3d6645d6	0.056218944
119	0xbe3a1ed9	-0.1817583
120	0xbe18f6c5	-0.14937885
121	0xbb1eac1e	-0.0024211477
122	0x3dc357c7	0.095382266
123	0x3d40a5a6	0.047032975
124	0x3dc0d8c2	0.09416343
125	0x3c94cc6b	0.01816388
126	0xbe16be08	-0.14720929
127	0x3d904f92	0.07046427
128	0xbd1e81c2	-0.038697965
129	0xbe24e5e8	-0.16103327
130	0xbcdfb2d3	-0.02730695
131	0xbd52c7bf	-0.051460024
132	0x3d89ba67	0.067250066
133	0x3d293d2d	0.041318107
134	0xbdf1a3ed	-0.117988445
135	0x3dcc1224	0.099643975
136	0x3dbdf606	0.09275441
137	0x3c4d9b5b	0.012549247
138	0xbd385f76	-0.045012914
139	0xbd598c23	-0.05311216
140	0x3de01a74	0.109425455
141	0xbda8b3e4	-0.082374364
142	0x3e5796fb	0.21053688
143	0x3c2c32ac	0.010510128
144	0x3dcfc74d	0.101454355
145	0xbde4c014	-0.111694485
146	0xbd125d39	-0.035733435
147	0xbd54108c	-0.051773593
148	0x3c31b8db	0.010847296
149	0x3d89e4a0	0.0673306
150	0x3d957ada	0.07298823
151	0xbd0efc22	-0.03490842
152	0x3e150f77	0.1455668
153	0x3de0db2d	0.109793045
154	0xbe0c40c0	-0.13696575
155	0xbdf72e08	-0.12069327
156	0x3d3dc31e	0.046328656
157	0xbd6195ce	-0.055074506
158	0x3d278a87	0.040903594
159	0xbd839115	-0.064241566
160	0xbe40e9a0	-0.18839121
161	0xbdf07f7d	-0.117430665
162	0xbda0df85	-0.07855133
163	0xbdd73f9d	-0.1051018
164	0xbcb7ca6f	-0.022435395
165	0xbd9197f4	-0.07109061
166	0xbd6862da	-0.056734897
167	0x3e2be653	0.1678708
168	0xbdbcc0fc	-0.09216496
169	0x3e283440	0.16426182
170	0x3e2fefc2	0.17181304
171	0xbe1345af	-0.14382051
172	0xbdcdba92	-0.10045351
173	0x3e0c2cac	0.13688916
174	0x3da5a26d	0.08087621
175	0xbd273634	-0.040823177
176	0x3b6c861d	0.003609068
177	0x3c7cd26e	0.01543103
178	0x3d8b00da	0.06787272
179	0x3e35607d	0.17712589
180	0xbd0af570	-0.033925474
181	0x3e37bb7b	0.17942612
182	0x3d74a0c1	0.05972362
183	0xbdf310bc	-0.11868426
184	0x3be5f82e	0.0070181107
185	0xbe2cde34	-0.16881639
186	0xbcc676cc	-0.024226569
187	0x3e0b705f	0.13617085
188	0x3ca13b7f	0.01968169
189	0xbbd85962	-0.006602452
190	0xbce2236a	-0.027604777
191	0xbd55dedb	-0.052214485
192	0xbe5f58b1	-0.21811177
193	0x3ac0150c	0.001465471
194	0x3decad1e	0.11556457
195	0x3dd0a9f1	0.10188664
196	0xbb2ae986	-0.0026079132
197	0x3d3681d0	0.044557393
198	0xba932e72	-0.0011229052
199	0x3d3c726e	0.046007566
200	0x3c91a234	0.01777754
201	0xbd7513cc	-0.059833333
202	0xbb72d48d	-0.003705296
203	0x3e2a1294	0.1660865
204	0xbd8942f2	-0.06702222
205	0xbdf38d68	-0.118922055
206	0x3d62dd18	0.055386633
207	0xbdb5ae26	-0.08871107
208	0xbd9bee13	-0.076137684
209	0x3dd5eef6	0.10445969
210	0xbe106266	-0.14100036
211	0x3d84dcdd	0.06487439
212	0x3da73fe5	0.08166484
213	0xbc694b00	-0.014239073
214	0x3d168849	0.036751065
215	0x3dd907e6	0.1059721
216	0xbe9e6e96	-0.30943745
217	0xbdb7d6bc	-0.08976504
218	0xba7b5fa6	-0.0009589143
219	0xbc5ca0aa	-0.01346604
220	0xbeae7594	-0.3407408
221	0xbd4b047d	-0.049564827
222	0x3d488840	0.048958063
223	0x3d9a6b1b	0.0753996
224	0x3d990729	0.07472069
225	0x3d8d53ba	0.06900735
226	0x3d7705f0	0.060308397
227	0xbc5ebf71	-0.013595448
228	0x3dad19d3	0.08452191
229	0xbe3c1b1f	-0.18369721
230	0xbdb6e4fe	-0.089303955
231	0x3d7b94d8	0.061421245
232	0x3da2c9c6	0.079486415
233	0xbd5439da	-0.051812984
234	0xbcbbfcc6	-0.02294768
235	0x3dbe8f00	0.09304619
236	0xbdbc9d08	-0.09209639
237	0xbd5b44db	-0.053532463
238	0xbde27019	-0.11056537
239	0x3d5d0a56	0.053964935
240	0xbdaf0bdc	-0.08547184
241	0x3dcab37f	0.098975174
242	0xbcdf5fe3	-0.027267402
243	0x3c8b0cbe	0.01697385
244	0x3e42970e	0.19002935
245	0x3cb5f35b	0.022210767
246	0x3de33912	0.1109487
247	0xbd8b32fb	-0.06796833
248	0xbdb711cd	-0.08938942
249	0x3d262899	0.04056606
250	0x3d14228a	0.03616575
251	0x3d50c6e8	0.05097094
252	0xbd4995d6	-0.04921516
253	0xbd7b8d79	-0.061414216
254	0xbe14b713	-0.14522962
255	0xbd9b6abd	-0.07588718

hidden_layers.4.bias f4 [20]
0	0x3e2af980	0.16696739
1	0x3dd0313b	0.1016564
2	0xbcc5beee	-0.024138894
3	0x3e08da16	0.13364443
4	0x3e3148e6	0.17312965
5	0x3db18ec8	0.086698115
6	0x3e2d9a30	0.16953349
7	0x3ebb419c	0.36573493
8	0x3daae07c	0.08343598
9	0x3d8dbeea	0.069211796
10	0x3b0f3e1e	0.0021857093
11	0x3dc656bb	0.09684511
12	0x3e1370b2	0.14398459
13	0x3df33226	0.118747994
14	0x3d12dcbc	0.03585504
15	0x3de1a61e	0.110180125
16	0x3cdaa35a	0.02668922
17	0x3e5defc6	0.21673498
18	0xbdfdd3ca	-0.12393911
19	0x3e82cbcf	0.2554612

hidden_layers.7.weight f4 [100, 20]
0	0x3e07c99d	0.13260503
1	0xbe4b9981	-0.19882776
2	0x3cbea851	0.023273619
3	0x3c6e18ae	0.014532251
4	0xbe30d5e9	-0.172691
5	0x3c2683f0	0.010163292
6	0xbf05d5fd	-0.52279645
7	0x3e23f918	0.1601299
8	0xb98d5c6b	-0.00026962472
9	0x3ddc19fe	0.10747145
10	0x3df44103	0.119264625
11	0x3cae04dd	0.021242553
12	0xbe6db9b0	-0.23215365
13	0x3d70f1c5	0.05882432
14	0xbec77eab	-0.38963827
15	0x3e897016	0.26843327
16	0xbe3e8b4d	-0.18607827
17	0x3c90f54f	0.017695097
18	0xbe2ccee2	-0.16875795
19	0xbeda2872	-0.42608982
20	0xbd5700ea	-0.052491106
21	0xbd4e1a3f	-0.050318
22	0x3dfe3aa7	0.12413531
23	0x3d54950c	0.051899955
24	0xbd82a670	-0.06379402
25	0x3ea4c053	0.32177982
26	0xbe06ec2c	-0.1317603
27	0xbd4c01f8	-0.049806565
28	0xbddb938e	-0.10721503
29	0x3a44bc7a	0.0007504892
30	0x3d9c4111	0.07629598
31	0x3cb5aa63	0.022175973
32	0x3dab23db	0.08356448
33	0xbf413244	-0.75467324
34	0x3e958fe1	0.29211333
35	0x3ca15d22	0.01969773
36	0xbe0cd23b	-0.13752072
37	0xbc13ae54	-0.009013731
38	0xbe18d324	-0.14924294
39	0xbd6f42de	-0.05841338
40	0x3e24b553	0.16084795
41	0xbe4326e1	-0.190578
42	0xbdd7a89c	-0.105302066
43	0xbe43fba3	-0.1913896
44	0x3d8f54bf	0.06998586
45	0xbdaeff04	-0.08544734
46	0xbe54a372	-0.20765474
47	0x3e7e03fc	0.24806207
48	0xbe09db4b	-0.1346256
49	0xbde447fd	-0.11146543
50	0x3e6b3f6f	0.22973417
51	0xbd68fd31	-0.056882087
52	0x3eb81e2b	0.35960516
53	0xbe020a1c	-0.12699169
54	0x3d9f220d	0.077701665
55	0xbdfde22c	-0.123966545
56	0x3df6d6b8	0.12052673
57	0xbd95f4ee	-0.07322107
58	0xbe65b08d	-0.2243063
59	0x3e78eaaa	0.24308267
60	0x3d838002	0.064209
61	0x3e0c9f5e	0.13732669
62	0xbe47b4a3	-0.19502501
63	0x3d702ef8	0.058638543
64	0xbde294ba	-0.110635236
65	0xbe5ff4fa	-0.21870795
66	0xbe5dceb3	-0.2166088
67	0xbdbcd674	-0.09220591
68	0xbeb2f18f	-0.3494992
69	0xbc3c822c	-0.011505645
70	0x3d992c43	0.074791454
71	0x3e837817	0.2567756
72	0x3d3bbefb	0.04583643
73	0x3e822430	0.25418234
74	0x3bfbeebb	0.007688371
75	0xbcebe58e	-0.028795984
76	0xbd31aca5	-0.043377537
77	0x3e5cbb2e	0.21555778
78	0xbdbcf260	-0.09225917
79	0x3e135150	0.14386487
80	0xbda73f31	-0.0816635
81	0x3ddfbac8	0.109242976
82	0xbe3854b4	-0.18001062
83	0x3e81517a	0.25257474
84	0xbf09f756	-0.5389303
85	0xbe09cf54	-0.13457996
86	0xbd1cc591	-0.03827435
87	0xbd7fe3f9	-0.06247327
88	0x3dadce2a	0.08486588
89	0x3e51cb81	0.20487787
90	0xbe905f5b	-0.2819775
91	0xbb758321	-0.0037462192
92	0xbe7a7cc3	-0.24461655
93	0xbdeeb4f5	-0.116556086
94	0x3d220e77	0.039564576
95	0x3e4abd6b	0.1979882
96	0xbd09a3c8	-0.03360346
97	0xbd8cc07b	-0.0687265
98	0xbd9d03c1	-0.076667316
99	0x3e6a21db	0.22864477
100	0xbdeb5736	-0.114912435
101	0x3bd2c003	0.006431581
102	0x3e93db7d	0.28878394
103	0xbd41e8dd	-0.047341216
104	0x3d9bcb64	0.07607153
105	0x3cd403a4	0.025880642
106	0xbd545e27	-0.051847603
107	0xbd19af00	-0.03752041
108	0xbdb4d353	-0.088293694
109	0x3e96b884	0.2943765
110	0x3c3f6cdb	0.011683668
111	0x3ead58d2	0.33856827
112	0xbe2cc8f5	-0.16873534
113	0x3d461cd1	0.048367325
114	0xb9d1ce64	-0.0004001736
115	0xbdcf3034	-0.10116616
116	0x3e1c8137	0.15283667
117	0xbd986535	-0.07441179
118	0xbde9f925	-0.11424474
119	0xbe83c8c6	-0.25739115
120	0x3e22b2a2	0.15888456
121	0x3cbe03c8	0.023195162
122	0xbdbcb3e1	-0.09213997
123	0xbce91f83	-0.028457409
124	0xbf035cf7	-0.5131373
125	0xbe234943	-0.15945916
126	0x3b0d430f	0.0021554863
127	0x3e947faf	0.29003665
128	0xbe70767d	-0.234827
129	0xbd260be4	-0.040538684
130	0x3d595c43	0.053066503
131	0x3ea11abc	0.3146571
132	0xbe8a6018	-0.2702644
133	0xbd1f5701	-0.038901333
134	0xbe3f717d	-0.18695636
135	0xbd8f6b4a	-0.07002886
136	0xbe064585	-0.13112457
137	0xbcb6045e	-0.02221888
138	0xbd30db9e	-0.043178193
139	0xbe5d6235	-0.21619494
140	0xbe6427bc	-0.22280782
141	0x3e185af5	0.14878447
142	0x3e1616e2	0.14657167
143	0x3eac9ef9	0.33715037
144	0x3e806faa	0.25085193
145	0x3e9c2cdc	0.30502975
146	0x3bce6b74	0.0062994305
147	0x3e806817	0.25079414
148	0xbdce50b7	-0.10073989
149	0xbd99424e	-0.0748335
150	0xbe2a3503	-0.16621785
151	0xbd765f8a	-0.060149707
152	0xbe0c5ae2	-0.13706544
153	0x3c834616	0.01602463
154	0xbd8a7474	-0.06760493
155	0xbe7503d9	-0.23927249
156	0xbdd824ec	-0.10553917
157	0x3e75dde9	0.24010433
158	0xbd2981b5	-0.041383464
159	0x3c08c762	0.008348318
160	0x3e87d19d	0.2652711
161	0xbdfb0841	-0.12257434
162	0xbe3b97dd	-0.1831965
163	0x3e6c5f8c	0.23083323
164	0xbe811b67	-0.2521622
165	0x3d21e067	0.039520647
166	0x3e081a37	0.1329125
167	0x3e515f21	0.20446445
168	0x3d8d7724	0.0690749
169	0xbe178fb9	-0.1480092
170	0xbc58830c	-0.013214838
171	0xbe985444	-0.2975179
172	0xbeef367e	-0.46721262
173	0xbecb75aa	-0.39738208
174	0x3c2cff6d	0.010558945
175	0x3d84217c	0.06451699
176	0x3e3d2ba0	0.18473673
177	0xbe7e9e42	-0.24865058
178	0x3dab786d	0.08372579
179	0xbccf715c	-0.025322609
180	0xbe2f6a78	-0.17130458
181	0x3e801fd4	0.25024283
182	0x3e1398c4	0.14413744
183	0xbe067d09	-0.13133635
184	0xbdb5576d	-0.08854566
185	0x3e9224a1	0.2854357
186	0xbe77cd30	-0.24199367
187	0x3e53c5dc	0.20680946
188	0x3dcd1d3b	0.10015341
189	0xbd96e3f3	-0.073676966
190	0x3adaf662	0.0016705508
191	0xbd78f9b1	-0.060785
192	0xbdef105d	-0.11673043
193	0xbd326ba2	-0.043559678
194	0x3e58e7c4	0.21182162
195	0xbd78bde9	-0.060727987
196	0xbe592368	-0.21204913
197	0xbbaa4b5b	-0.0051969714
198	0xbe2ff8fb	-0.17184822
199	0xbdad1ce8	-0.08452779
200	0xbe17ddcf	-0.14830707
201	0x3be0fe96	0.0068662865
202	0x3cc5e5c5	0.024157414
203	0x3e928227	0.28614923
204	0xbc6822ac	-0.014168423
205	0x3d370cc8	0.044689924
206	0x3b08fcb8	0.0020902585
207	0x3dd42040	0.10357714
208	0xbe321ee1	-0.17394592
209	0xbe3b1606	-0.1827012
210	0xbd9d3851	-0.07676757
211	0x3e783a69	0.24241032
212	0x3ad72a91	0.0016415884
213	0xbcb9f508	-0.022699848
214	0xbc2f6612	-0.010705488
215	0xbe07b252	-0.13251618
216	0x3bf622f5	0.0075114914
217	0x3e7ab391	0.24482562
218	0x3e113995	0.14182122
219	0xbdee48eb	-0.11635002
220	0xbe86dc42	-0.26339918
221	0xbe344332	-0.17603758
222	0x3e0b8988	0.13626683
223	0x3dbfc5ca	0.09363897
224	0x3d6f1550	0.058369935
225	0xbd4c0ecd	-0.049818803
226	0xbb9ab814	-0.004721651
227	0xbe68d86a	-0.22738805
228	0x3e8eb80c	0.27874792
229	0x3e044c60	0.1291976
230	0x3e4b57e9	0.19857754
231	0x3ea03337	0.31289074
232	0x3de41c07	0.11138158
233	0x3dc855e0	0.09782004
234	0xbe0c957d	-0.137289
235	0xbe1b66cf	-0.15175937
236	0xbe1a6042	-0.15075782
237	0x3d4d2b04	0.05008985
238	0xbdac2d26	-0.08407049
239	0xbe7f2e38	-0.24919975
240	0xbde74b20	-0.11293626
241	0x3e8b5d70	0.27219725
242	0xbd66532b	-0.05623166
243	0xbde17b28	-0.11009818
244	0xbe04849b	-0.1294121
245	0x3e8ae8a8	0.27130628
246	0x3ec7260f	0.38896224
247	0x3d4384d4	0.047734097
248	0xbe8941e6	-0.2680809
249	0x3e21e97b	0.15811722
250	0xbc5b9385	-0.013401871
251	0x3e7089a0	0.2349
252	0xbde23e71	-0.11047066
253	0xbcb63ef7	-0.02224682
254	0x3d8119b7	0.06303733
255	0xbd49075e	-0.04907929

hidden_layers.7.bias f4 [100]
0	0x3ea84b57	0.3286998
1	0x3e28198e	0.16415998
2	0x3f2a90a8	0.6662698
3	0x3eac603b	0.33667168
4	0x3d015068	0.031570822
5	0x3e6af5ba	0.229453
6	0x3ecd69e8	0.40119863
7	0x3d6f066d	0.058355737
8	0x3ea8bbc3	0.3295575
9	0x3e98646c	0.29764116
10	0x3f21031f	0.6289539
11	0x3e37dc83	0.17955212
12	0x3e2bf0e1	0.16791107
13	0xbe8ba63a	-0.27275258
14	0x3e458f1c	0.19292873
15	0x3cb9d593	0.022684848
16	0x3dc96019	0.09832782
17	0x3e80d6e4	0.2516395
18	0x3f0bba59	0.5458122
19	0xbd3b4a76	-0.04572531
20	0x3da71437	0.081581526
21	0x3e64fcb7	0.22362028
22	0x3e6b3096	0.22967753
23	0xbea0d21c	-0.314103
24	0x3ddcde84	0.10784629
25	0x3ea442ca	0.32082206
26	0x3e51a6dd	0.2047381
27	0x3dd9ac7b	0.10628601
28	0x3f167341	0.58769614
29	0x3d8212ec	0.06351265
30	0xbdaf439d	-0.08557818
31	0xbeb3f237	-0.35145733
32	0x3efb71c3	0.4911023
33	0x3d6fcae2	0.058543094
34	0x3f320cd4	0.69550824
35	0x3d87c997	0.06630247
36	0x3f0fb11d	0.5612963
37	0x3e9c7f73	0.30565986
38	0x3f0f5b84	0.55999017
39	0x3e9071bc	0.28211772
40	0x3eff6433	0.49881133
41	0xbcdf0a40	-0.027226567
42	0xbe2c9e5b	-0.16857283
43	0x3e1574fd	0.14595409
44	0x3d97db32	0.07414855
45	0xbf037254	-0.51346326
46	0xbbebacb9	-0.007192221
47	0x3f1d6c28	0.6149316
48	0x3f275e16	0.6537794
49	0x3e6728ea	0.22574201
50	0xbe86bddf	-0.26316735
51	0xbd70a57e	-0.058751576
52	0x3e25616a	0.16150442
53	0x3ecf35ff	0.40470883
54	0x3f0940fc	0.53614783
55	0x3e072bcb	0.132003
56	0xbea975e8	-0.33097768
57	0x3ddecda3	0.10879066
58	0x3e7cceb7	0.2468823
59	0x3d6c8e8d	0.057753135
60	0x3f0b6ce4	0.5446303
61	0xbe1f59aa	-0.15561548
62	0xbb752639	-0.0037406816
63	0x3eaaab0e	0.3333363
64	0xbf213771	-0.6297522
65	0xbd96724c	-0.07346019
66	0x3ef38e03	0.47569284
67	0x3e9b8e34	0.3038193
68	0x3f2481b5	0.6426042
69	0xbe4f2771	-0.2022989
70	0x3ebe9e1e	0.3723001
71	0x3f179d64	0.59224534
72	0x3f0fc7e2	0.5616437
73	0xbe100025	-0.14062555
74	0x3e3b4b50	0.18290448
75	0x3dad1655	0.08451525
76	0xbe5604da	-0.20900288
77	0x3ead0b37	0.3379762
78	0xbce7eecf	-0.028312115
79	0x3d3d4764	0.04621066
80	0xbdf0cf1c	-0.11758253
81	0x3eaa608a	0.33276778
82	0x3e2c773a	0.16842356
83	0x3beddf4a	0.007259284
84	0xbedd90e6	-0.4327461
85	0x3eba9e46	0.36448878
86	0x3e559d56	0.208608
87	0xbe22dc90	-0.1590445
88	0x3e14c97a	0.14529982
89	0x3e253760	0.16134405
90	0xbe94a6b1	-0.29033425
91	0x3ed24813	0.41070613
92	0x3ed4737a	0.41494352
93	0x3ee84f27	0.45372888
94	0x3ca7ddad	0.020491445
95	0x3e476790	0.194731
96	0x3dffadc5	0.12484316
97	0xbdf91ce2	-0.12163712
98	0xbe8ab5d1	-0.2709184
99	0x3eadef31	0.3397155

hidden_layers.9.weight f4 [300, 100]
0	0xbd7c6688	-0.06162122
1	0xbe81d6b1	-0.2535911
2	0x3da82d3c	0.08211753
3	0xbba6654f	-0.005077995
4	0x3d422ef0	0.047408044
5	0x3d632b75	0.055461366
6	0x3c8c84dd	0.017153198
7	0x3dbd2e40	0.09237337
8	0x3c7157f5	0.014730443
9	0x3d6a0c5f	0.057140704
10	0x3d4df860	0.050285697
11	0xbe1c6031	-0.15271069
12	0x3d9a46a3	0.07533004
13	0x3d8e0c0d	0.06935892
14	0x3e069587	0.13142978
15	0x3d1a490b	0.037667315
16	0xbe3bcaf5	-0.1833914
17	0xbd905d2a	-0.0704902
18	0xbde5976b	-0.11210521
19	0xbdb0934e	-0.08621846
20	0xbd455bf3	-0.048183393
21	0x3d31c4b0	0.043400466
22	0x3e04fa53	0.12986116
23	0x3dff8943	0.124773525
24	0xbd62153f	-0.055196043
25	0xbdf0b369	-0.1175297
26	0x3e02dc50	0.12779355
27	0xbd56c209	-0.05243114
28	0x3dbfd8b0	0.09367502
29	0xbd0e5896	-0.03475245
30	0x3dc49513	0.09598746
31	0xbdb026b2	-0.086011305
32	0xbd5e6c9c	-0.054302797
33	0xbe855474	-0.26040995
34	0xbd2abd4c	-0.041684434
35	0x3d5e970b	0.054343265
36	0xbd8bf39f	-0.068335764
37	0xbdafcc14	-0.08583847
38	0xbe479d62	-0.1949363
39	0x3d095e59	0.033537243
40	0x3e3daa75	0.18522055
41	0xbce88a06	-0.028386127
42	0xbda430bd	-0.080171086
43	0xbe671ee8	-0.22570384
44	0x3db3a6fd	0.08772085
45	0xbe597d7e	-0.21239278
46	0x3c8fdc58	0.017561123
47	0x3cf052b2	0.029336307
48	0x3d2f27be	0.04276251
49	0x3cfd00e3	0.030884212
50	0x3cc51737	0.024058921
51	0x3d1fda3f	0.039026495
52	0xbd7a7798	-0.06114921
53	0xbe17f10d	-0.14838047
54	0xbb19e191	-0.0023480395
55	0x3dba4e15	0.09096924
56	0x3d649b1d	0.05581199
57	0x3d7b18e0	0.06130302
58	0x3db91c3f	0.09038591
59	0x3c9f5111	0.019447835
60	0xbe0964ff	-0.13417433
61	0x3db1f881	0.086899765
62	0xbc9be36b	-0.01902934
63	0xbe024cc8	-0.12724602
64	0x3c0870a0	0.008327633
65	0x3e64d27c	0.22345918
66	0x3d388293	0.0450464
67	0x3e1272b2	0.14301565
68	0xbd9ae1c4	-0.075625926
69	0x3db16c79	0.08663268
70	0xbe455646	-0.19271192
71	0xbd22b589	-0.039723907
72	0xbe41598e	-0.18881819
73	0xbd4f87ff	-0.050666805
74	0x3d9243f0	0.07141864
75	0x3d2bfc3d	0.0419886
76	0x3d81cb17	0.063375644
77	0xbe09c256	-0.1345304
78	0xbd520a4a	-0.051279344
79	0xbe319201	-0.17340852
80	0x3db3304a	0.08749445
81	0xbc47502c	-0.012165111
82	0x3dcd8f71	0.10037125
83	0x3cb737bb	0.022365442
84	0x3c99fc95	0.018797198
85	0x3d06c17e	0.032899372
86	0xbd4301e4	-0.047609225
87	0x3e259e78	0.16173732
88	0x3d7cfdeb	0.061765593
89	0xbdb3ae83	-0.0877352
90	0xbda718cf	-0.08159029
91	0xbeb42c74	-0.35190165
92	0xbd581c1a	-0.052761175
93	0x3e42894f	0.18997692
94	0xbe878653	-0.2646967
95	0xbd7acd67	-0.061231043
96	0xbe308f96	-0.17242274
97	0x3dcd3896	0.100205585
98	0x3c0d0515	0.008607169
99	0x3cb2a459	0.021806883
100	0x3d7ce0bc	0.06173776
101	0xbd540125	-0.051758904
102	0x3d90bb0e	0.07066928
103	0x3dae407d	0.08508394
104	0x3de6a3f1	0.11261738
105	0x3dbfc28f	0.09363281
106	0xbdf33fe4	-0.118774205
107	0xbd98c8c8	-0.07460171
108	0xbdb76fec	-0.08956894
109	0x3d833260	0.06406093
110	0x3d8fa1f6	0.070133135
111	0x3d89f667	0.06736451
112	0x3d8c7e92	0.06860079
113	0xbd851fec	-0.06500229
114	0x3d2fa77e	0.042884342
115	0xbda8f0a0	-0.082490206
116	0x3ced1737	0.028941734
117	0xbdf9136f	-0.1216191
118	0xbe2bbaff	-0.16770552
119	0xbd7b2efe	-0.061324112
120	0xbc234932	-0.009966182
121	0xbdd66d72	-0.10470094
122	0xbd2c787f	-0.0421071
123	0xbd4d3dc0	-0.050107718
124	0xbcd86dde	-0.026419576
125	0x3cf86deb	0.03032585
126	0x3cb854ec	0.022501431
127	0xbdd8ca6e	-0.105854854
128	0x3d7b2886	0.061317943
129	0x3ce9c04f	0.028534083
130	0xbe039322	-0.12849095
131	0x3ca18f12	0.019721542
132	0x3e17c0cb	0.14819638
133	0xbcb85ee4	-0.022506185
134	0x3c563dfe	0.0130763035
135	0x3defc2a1	0.117070444
136	0x3c1c0450	0.009522513
137	0xbd42831c	-0.047488317
138	0xbdd75333	-0.10513916
139	0xbca62a64	-0.020283885
140	0x3d68da1d	0.056848634
141	0x3cf6e67e	0.030139204
142	0xbd770611	-0.06030852
143	0xbd4b7e38	-0.04968092
144	0x3d85a13b	0.06524893
145	0xbca0b72b	-0.019618591
146	0xbd1e8905	-0.03870489
147	0x3dc48ee4	0.09597567
148	0x3d004b9c	0.031322107
149	0xbd04ad5f	-0.032391902
150	0xbe32daae	-0.17466232
151	0x3c17ac5d	0.009257403
152	0xbc0ef4f5	-0.0087253945
153	0x3d013196	0.03154143
154	0xbd6c0b96	-0.057628237
155	0xbba4b9d2	-0.0050270343
156	0xbde975cc	-0.11399421
157	0x3d997765	0.07493476
158	0x3d75c502	0.060002334
159	0x3c6a9592	0.014317887
160	0x3e23e2d9	0.16004504
161	0x3ba1542f	0.0049233655
162	0x3c9010c1	0.017586114
163	0xbcc1d494	-0.023660935
164	0xbd992f74	-0.07479754
165	0x3d5bb816	0.053642355
166	0x3caceef6	0.02111004
167	0x3d5eb214	0.054369047
168	0x3dee076c	0.11622509
169	0x3d671ec0	0.05642581
170	0xbe3f7c01	-0.18699647
171	0xbd8410e0	-0.06448531
172	0xbc398396	-0.011322876
173	0xbdf35c19	-0.118828006
174	0x3c914859	0.017734693
175	0x3cb90339	0.022584544
176	0x3d3fc8c0	0.04682231
177	0xbe0ec8fd	-0.13943858
178	0xbd24928f	-0.04017883
179	0xbda2d5db	-0.07950946
180	0xbd8fafc9	-0.0701595
181	0xbcffde8a	-0.031234045
182	0xbd87ebb0	-0.06636751
183	0xbda712de	-0.081578955
184	0x3cfe3ef8	0.031035885
185	0x3cbef9ce	0.023312476
186	0xbc7a34d1	-0.0152713815
187	0xbcb74260	-0.022370517
188	0x3c8462a8	0.016160324
189	0x3cf52315	0.029923955
190	0x3d22b35c	0.03972183
191	0xbe163c6e	-0.1467149
192	0x3e33d67f	0.17562293
193	0x3ddf6400	0.10907745
194	0x3ae2e173	0.0017309621
195	0xbccd929e	-0.025094327
196	0x3dd972ba	0.106175855
197	0xbd8ccd4f	-0.06875097
198	0xbdc1a37e	-0.09455012
199	0x3db27427	0.087135606
200	0x3e577a92	0.2104285
201	0x3e95dca4	0.29269898
202	0xbb63c137	-0.0034752616
203	0xbd45a8b6	-0.0482566
204	0xbda84bc8	-0.08217579
205	0xbc96b728	-0.018397883
206	0xbd552bf8	-0.052043885
207	0xbda59e6e	-0.08086859
208	0xbe223f39	-0.1584443
209	0x3cdd6104	0.0270238
210	0xbd9a488d	-0.07533369
211	0xbd712691	-0.05887467
212	0xbdc9e875	-0.09858791
213	0x3ddb5af6	0.10710709
214	0x3dce98f6	0.10087769
215	0xbd51a07a	-0.051178433
216	0xbca86b3f	-0.020558951
217	0x3c10bdd5	0.008834322
218	0x3d4912df	0.049090263
219	0x3dae92ab	0.085240684
220	0xbd6e2057	-0.05813631
221	0xbe1a33fc	-0.15058893
222	0xbe29c7d0	-0.16580129
223	0xbe31c250	-0.1735928
224	0xbe9dbdfd	-0.30809012
225	0xbd727e85	-0.05920269
226	0x3c8e27e9	0.017353015
227	0xbd1ba43a	-0.037998416
228	0x3d8129c8	0.06306797
229	0xbe612c7f	-0.2198963
230	0x3dfd2d20	0.123621225
231	0xbddaffd9	-0.1069333
232	0x3dff354c	0.124613374
233	0x3cef612a	0.029221136
234	0x3e050473	0.12989978
235	0x3d642834	0.055702403
236	0x3caf11a6	0.02137072
237	0x3d852a2c	0.06502184
238	0xbe10e532	-0.14149931
239	0xbd9934d6	-0.07480781
240	0x3de2dfc3	0.110778354
241	0x3dab7c74	0.08373347
242	0x3c17450b	0.00923277
243	0xbd86cea4	-0.06582382
244	0xbdb0f6ee	-0.08640848
245	0xbdd1d09d	-0.10244868
246	0xbc5f6753	-0.013635474
247	0xbddca328	-0.10773307
248	0xbd814f50	-0.06313956
249	0x3e73d988	0.2381345
250	0x3d67edae	0.056623153
251	0xbd0e2975	-0.034707505
252	0xbd43c61d	-0.047796357
253	0x3d790689	0.060797248
254	0xbe059057	-0.13043343
255	0x398c0cf0	0.0002671252
